Network results/netG_mu_polynomial1-12-18-30-z.pt (torch, 47703 bytes, 6 tensors)

main.0.weight f4 [100, 6]
000000 fa 58 a4 3d 24 b6 2e 3e bb 0e e7 3d 5c 6d 13 3b
       0.080247834 0.17061669 0.112821065 0.0022495603
000010 32 14 02 3e 90 b8 52 bd df f7 50 bd 86 56 fc bc
       0.12703016 -0.051445544 -0.05101764 -0.030802976
000020 a9 37 c2 bc fb 7b 81 3d 20 a7 03 bc f6 84 9b bd
       -0.023708181 0.063224755 -0.008035451 -0.0759372
000030 17 d3 0f be 29 a9 5a be f5 c2 fb 3c 1c 22 2b 3d
       -0.14045368 -0.21353592 0.030732611 0.041780576
000040 27 e8 ec bd c0 ef 1a bd ae 2f 15 bd a1 a0 08 be
       -0.11567717 -0.0378263 -0.036422424 -0.13342525
000050 37 fe b5 bc 8f e6 3b 3e 7f 56 a5 bc 0b a0 ba bd
       -0.022215946 0.1834967 -0.020182846 -0.09112557
000060 41 61 a4 3d 85 36 39 3d b7 73 80 3e 79 c5 15 3b
       0.08026362 0.04521801 0.25088283 0.0022853299
000070 e9 51 67 bd 55 a9 89 3d 1e 0c 26 bb 70 73 9f 3d
       -0.0564746 0.06721751 -0.0025336812 0.0778569
000080 b0 ce 02 3e 78 17 da 3d cf ca 0a bd 5a 24 88 bd
       0.12774158 0.106490076 -0.03388482 -0.066475585
000090 90 48 6b bd 4c 38 26 bd ca 53 72 3d 72 b6 8b 3d
       -0.057442248 -0.040581033 0.05916194 0.06821908
0000a0 ab 83 40 be 0f 55 95 3c 98 59 2f 3d b5 49 9c 3d
       -0.18800227 0.018229036 0.042810053 0.07631246
0000b0 46 37 77 3d 60 dd 23 be 8c 4f 49 3e 35 60 3a 3d
       0.060355447 -0.16002417 0.19659251 0.045501906
0000c0 b7 39 6c 3d 72 f8 aa bd 24 32 2b bd 6b 78 a1 3c
       0.05767223 -0.083481684 -0.041795865 0.01971074
0000d0 fd 77 b0 3d d4 72 73 3d e4 0f 72 3d 16 e7 ce 3d
       0.08616636 0.05943568 0.059097186 0.1010267
0000e0 6e c5 8e 3d 3d 12 65 bd e7 f4 17 3e 4f db 22 be
       0.069712505 -0.055925597 0.14839517 -0.15903972
0000f0 36 a5 4c 3c e9 49 f4 bc 1d 05 05 3d b4 82 5f 3c
       0.012490561 -0.0298204 0.03247558 0.013642002
000100 a8 94 b2 3e 07 d6 c5 3d 75 b7 71 bd 83 fa 07 be
       0.3487904 0.09659963 -0.05901285 -0.13279156
000110 7c 1c 59 3e a9 16 91 3d be 97 74 be 01 fe a6 3d
       0.21202272 0.070844 -0.2388601 0.08153916
000120 ad 0d dc bd e4 57 27 be dc f8 0d bd 7d 8f 28 bd
       -0.10744796 -0.16342121 -0.03466116 -0.041152466
000130 ea fd fc bc 13 06 36 bd 4f 5b ed 3d ba 93 92 3d
       -0.030882794 -0.044439387 0.11589681 0.07157083
000140 a8 b1 70 bd 4f e1 d4 bd 33 10 2a bd e3 c3 a8 bd
       -0.058763176 -0.10394537 -0.041519355 -0.082404874
000150 af 2b bc bd 6b bb cb bd 84 84 e1 3d 4d 8c c7 bd
       -0.091880195 -0.099478565 0.110116035 -0.09743557
000160 86 ec 55 bd e0 cd 2b 3b d2 7a 23 3e 44 0d c2 bb
       -0.05222752 0.002621524 0.15964821 -0.0059219915
000170 32 4e 86 bd f0 07 59 be 9c 05 b7 bc 22 ed ee 3d
       -0.06557883 -0.21194434 -0.022341542 0.11666323
000180 3c 5c c6 bd d6 73 32 3e 29 f3 fb 3d dd 52 31 bd
       -0.09685561 0.17427 0.123022385 -0.043291915
000190 b9 25 e3 3d 0e b8 5b bd 30 7d 78 3d 6a e2 8c bd
       0.110911794 -0.053642325 0.060666263 -0.068791226
0001a0 22 f4 c6 3c 00 75 45 bd 15 6c 2f 3e 8b b6 60 bd
       0.024286333 -0.048207283 0.17131074 -0.054861587
0001b0 28 55 cb 3d 8c ca 02 be 72 c1 ac 3d 44 36 18 be
       0.09928352 -0.12772578 0.08435334 -0.1486445
0001c0 80 9e 83 3d 7a 74 b2 3d 5b bc b0 3c 19 2e 85 bd
       0.06426716 0.087136224 0.02157419 -0.06502933
0001d0 cc f6 27 bd 8c c9 c6 3d 58 6e d0 bb ba bd 33 3d
       -0.04100685 0.09706411 -0.0063608103 0.04388211
0001e0 73 2d f9 3d 20 65 08 be 0a 54 ed 3c 42 d9 75 bc
       0.12166872 -0.13319826 0.028970737 -0.015005412
0001f0 62 56 ba 3d fa ba b2 bc 76 3a 82 3d 89 7b 7d 3e
       0.090985075 -0.021817673 0.06358807 0.24754156
000200 3f dc 05 3d 78 a5 19 3e 7a ae 8b 3c d7 91 eb bc
       0.032680746 0.15004528 0.01705097 -0.028756065
000210 10 30 34 3d 98 49 cc 3c 6e b1 99 bd 21 c7 89 3d
       0.04399115 0.024937436 -0.07504545 0.06727434
000220 c6 0c b3 3d 8d b4 92 3d 3e cc 1c bc a6 2b 2b 3e
       0.08742671 0.071633436 -0.0095701795 0.1671587
000230 4e 78 d9 bc 65 08 75 bb af 13 f0 3b 4f 51 80 3d
       -0.026546624 -0.0037389037 0.007326565 0.062655084
000240 72 a2 06 bc c8 9d e8 3d 34 28 ec 3d de 24 57 3d
       -0.008217441 0.113582194 0.11531106 0.052525394
000250 74 52 79 3c 82 ab 09 be e7 18 2d be b5 a2 6e 3d
       0.015217412 -0.13444331 -0.1690403 0.05826064
000260 18 c2 83 bd 11 ee 03 be 81 61 98 3d 03 82 d6 3c
       -0.06433505 -0.12883784 0.074404724 0.026185041
000270 ac ba 4d 3e 7f ad 9e 3b 2e 2f 64 bd 79 6b 60 3d
       0.20090741 0.0048424597 -0.055709057 0.054789994
000280 5d 2c 11 bd ec 1f b2 3c 21 d9 af bd d5 8f d5 bd
       -0.0354427 0.021743737 -0.08586336 -0.104278244
000290 9c 1a ae bd 26 b6 df 3d 56 80 6e bd 5e af 29 be
       -0.08501169 0.10923414 -0.05822786 -0.16570804
0002a0 46 01 da 3d 8b ea 79 3e f6 cc 1e be 4d cd d8 bd
       0.10644774 0.24405877 -0.15507874 -0.10586033
0002b0 b7 18 94 bc af b8 2f bd ba e3 6c 3b 72 f7 11 3d
       -0.018078191 -0.042900737 0.0036146478 0.035636373
0002c0 b4 38 d2 bd c5 f6 3c be db 0c 43 be e2 75 dc 3d
       -0.102647215 -0.1845351 -0.19047873 0.10764672
0002d0 8c 07 a0 bd 59 1a 46 bd 91 8f da 3d 67 fa ae 3d
       -0.078139395 -0.04836497 0.10671914 0.08543854
0002e0 67 e6 9c bd 9b af 11 bd 0d 63 23 3e 5c d9 e1 3d
       -0.07661133 -0.03556786 0.15955754 0.11027786
0002f0 44 1b 81 3c 4f f9 c0 3c d9 08 58 be 4c 3a 8d bd
       0.015760072 0.02355638 -0.21097125 -0.06895885
000300 f2 bc 4b be d1 2d 99 bc 3a e7 20 3e de 5d 7e 3d
       -0.19896296 -0.018698605 0.15713206 0.062101237
000310 5e fc 75 3c 6a b8 07 bd 6e 96 0d 3e 77 80 34 bd
       0.015013782 -0.033134855 0.13826916 -0.044067826
000320 87 4d fb ba ab 48 1d be fd 36 37 bc 20 4c e6 bd
       -0.0019172885 -0.15359752 -0.011182544 -0.112449884
000330 00 58 d0 3d 68 4e b6 bd 30 a9 4d bd ef 94 be bb
       0.10173035 -0.089016736 -0.050210178 -0.005816094
000340 34 23 04 3d 85 8b a6 3c 6a c4 23 bd 16 94 c5 bd
       0.032260135 0.0203302 -0.039982237 -0.09647386
000350 61 b6 29 bd 1b 04 94 3d b6 0d 86 be 24 2a 05 be
       -0.041433696 0.072273456 -0.26182336 -0.13004357
000360 c0 ff 8f 3d e8 0b c8 bd 21 94 52 3d 9a 43 39 3d
       0.07031202 -0.09767896 0.051410798 0.045230485
000370 5e 21 67 3e 4d 08 77 bd d3 8e 0a bd 37 d5 01 3e
       0.22571322 -0.06031065 -0.033827614 0.12678991
000380 c2 c4 df 3d 29 59 2e bd 45 ee 63 3e 0f f6 ab 3c
       0.109262004 -0.0425655 0.22258861 0.020991353
000390 e5 98 b8 ba 14 e9 8a bd bb 4a fe bb 0b c0 b6 3d
       -0.0014083652 -0.067827374 -0.0077603734 0.08923348
0003a0 a7 dd 14 3c 63 0b 0f be d0 2e 8c be 05 94 f6 bd
       0.009086049 -0.13969187 -0.27379465 -0.12039951
0003b0 a4 fc ac 3d 9d dd ae 3d e2 41 05 bd 24 3c f1 3d
       0.08446625 0.08538363 -0.032533534 0.11779049
0003c0 bd fd f4 3c ad d8 eb bd e7 17 c1 3d 63 ae b2 3c
       0.029906148 -0.11515937 0.09428387 0.02181167
0003d0 d0 a8 b9 3c 77 3d a8 bd 24 78 0c 3e ee 2e 70 3b
       0.022663504 -0.082148485 0.13717705 0.0036649066
0003e0 2e 10 98 3a d3 76 1a 3e e3 16 5a 3e 59 bc e7 3b
       0.0011601502 0.1508439 0.21297793 0.0070720133
0003f0 51 c1 09 be 83 ac dd bd f1 4b fe 3c d7 f7 b7 3d
       -0.1345265 -0.108239196 0.031042071 0.089828186

main.0.bias f4 [100]
000000 62 cc 3f 40 e4 d1 3f 40 6d ce 3f 40 c9 13 40 40
       2.9968495 2.9971857 2.9969742 3.0012076
000010 29 dc 3f 40 4f df 3f 40 5c ce 3f 40 52 e1 3f 40
       2.9978125 2.9980047 2.9969702 2.9981275
000020 c2 df 3f 40 62 dd 3f 40 1e dc 3f 40 78 d9 3f 40
       2.998032 2.9978871 2.99781 2.9976482
000030 c9 da 3f 40 fd 28 40 40 dd e2 3f 40 50 22 40 40
       2.9977286 3.0025017 2.9982216 3.0020943
000040 64 e0 3f 40 7b de 3f 40 bb 21 40 40 52 d9 3f 40
       2.9980707 2.9979541 3.0020587 2.9976392
000050 87 d5 3f 40 2f fa 3f 40 2c 28 40 40 2c 20 40 40
       2.9974077 2.999645 3.002452 3.0019636
000060 40 db 3f 40 ea 1c 40 40 83 e0 3f 40 3a d6 3f 40
       2.997757 3.0017648 2.998078 2.9974504
000070 2e 11 40 40 34 24 40 40 d2 24 40 40 91 24 40 40
       3.0010486 3.0022097 3.0022473 3.0022318
000080 dc 25 40 40 2c d8 3f 40 dd e7 3f 40 84 18 40 40
       3.0023108 2.997569 2.9985268 3.0014963
000090 92 d7 3f 40 9a 22 40 40 f0 d8 3f 40 4a 0f 40 40
       2.9975324 3.002112 2.9976158 3.0009332
0000a0 4c 27 40 40 e8 e3 3f 40 69 16 40 40 c4 dc 3f 40
       3.0023985 2.9982853 3.0013678 2.9978495
0000b0 24 1c 40 40 e9 25 40 40 3b de 3f 40 47 d9 3f 40
       3.0017176 3.0023139 2.9979389 2.9976366
0000c0 61 0c 40 40 43 22 40 40 97 2d 40 40 4f e4 3f 40
       3.0007555 3.0020912 3.0027826 2.9983099
0000d0 7a f3 3f 40 16 e1 3f 40 5a 17 40 40 a4 31 40 40
       2.9992356 2.9981132 3.0014253 3.0030298
0000e0 fb 22 40 40 d7 de 3f 40 29 1c 40 40 76 26 40 40
       3.002135 2.997976 3.0017188 3.0023475
0000f0 65 27 40 40 49 10 40 40 15 24 40 40 88 1b 40 40
       3.0024045 3.000994 3.0022023 3.0016804
000100 3b 04 40 40 4f d4 3f 40 1d dd 3f 40 ff dd 3f 40
       3.0002582 2.9973333 2.9978707 2.9979246
000110 d7 e1 3f 40 08 e0 3f 40 e2 dd 3f 40 2c d9 3f 40
       2.9981592 2.9980488 2.9979177 2.9976301
000120 95 e8 3f 40 a5 e0 3f 40 31 21 40 40 7a 2b 40 40
       2.9985707 2.9980862 3.0020258 3.0026536
000130 c1 2b 40 40 be 17 40 40 98 20 40 40 ec 21 40 40
       3.0026705 3.001449 3.0019894 3.0020704
000140 c1 17 40 40 55 e3 3f 40 42 e1 3f 40 75 26 40 40
       3.0014498 2.9982502 2.9981236 3.0023472
000150 f4 13 40 40 bb d5 3f 40 8a db 3f 40 dd dd 3f 40
       3.0012178 2.99742 2.9977746 2.9979165
000160 b5 e6 3f 40 52 20 40 40 25 2a 40 40 e1 1b 40 40
       2.9984562 3.0019727 3.0025723 3.0017016
000170 98 db 3f 40 aa 13 40 40 8e de 3f 40 d6 1a 40 40
       2.997778 3.0012002 2.9979587 3.001638
000180 25 d6 3f 40 5b dd 3f 40 99 df 3f 40 ae dc 3f 40
       2.9974453 2.9978855 2.9980223 2.9978442

main.2.weight f4 [100, 100]
000000 e5 2f 7f 3d 75 e0 25 3d 34 bd 43 bd 90 a5 ed bc
       0.062301535 0.040497262 -0.04778786 -0.02900961
000010 d4 eb e8 bd 64 e5 2e be 7b f4 8a 3c 97 60 fb bd
       -0.11373106 -0.17079693 0.01696228 -0.122742824
000020 4e f3 86 3c 75 cc cb bd 9c f6 98 3d a2 a9 9c 3c
       0.016473439 -0.099511065 0.07468912 0.019123856
000030 f4 c8 7d bd 7e 6b 84 bd 1b 4f 9a 3d ca 40 3e be
       -0.061959222 -0.06465815 0.075346194 -0.18579403
000040 63 89 08 3d a6 2b 92 3c f6 5f 67 3e 80 79 07 bd
       0.033334147 0.017843079 0.225952 -0.033074856
000050 f6 04 cc 3c d5 1c e9 bc 0a 94 a4 bd 2b d4 86 3d
       0.02490471 -0.028456131 -0.08036049 0.065834366
000060 8f 57 44 3e 65 6b bd bd c4 ec f0 3c a8 1e c5 3d
       0.19174026 -0.092489995 0.029409774 0.09624988
000070 ba 83 26 3e e4 85 58 3d 20 bd 78 bd 03 cd 3b 3c
       0.16261187 0.052862063 -0.06072724 0.011462453
000080 1a 27 6e 3e 86 4a 04 3d 3b 4e 0d be 86 85 8b 3d
       0.23257104 0.032297634 -0.13799374 0.06812577
000090 19 26 1a be 16 02 a7 3d ca e2 6f 3b b1 a8 57 bc
       -0.15053596 0.08154695 0.0036603683 -0.013162778
0000a0 d2 e1 c0 3c c1 0b 47 3e 7a 48 74 3d 0c 28 b7 3c
       0.02354518 0.19438078 0.05963943 0.022357963
0000b0 22 5c 23 be 0b 9a 55 be c9 a2 ce 3d 01 0d bf 3d
       -0.15953115 -0.20859544 0.100896426 0.09328652
0000c0 e5 de 92 bd 89 de 0c bd 97 ee de bc e4 a5 e1 3d
       -0.0717142 -0.034391914 -0.027213378 0.11017969
0000d0 48 c7 5c 3c 13 c1 03 3e f4 e8 c8 3d a8 2c 91 bd
       0.013475247 0.1286662 0.09810057 -0.07088596
0000e0 8a 73 7e bd 85 43 ca bd d2 13 cc bd 09 05 c1 bc
       -0.062121905 -0.098761596 -0.09964718 -0.023561971
0000f0 64 f3 99 3d 11 4c b0 3d 9b 5c 04 be 86 67 b3 bd
       0.07517126 0.086082585 -0.12925951 -0.0875998
000100 b3 8a 24 be fe da fc 3d d8 1d 88 3d 3e 6e bc bc
       -0.16068535 0.12346457 0.06646317 -0.023001786
000110 68 d5 db 3c ae 9e 0c ba 99 a5 19 3e c9 27 a5 bd
       0.026835158 -0.0005364221 0.15004577 -0.08064229
000120 62 c8 f0 3a ac 4d 38 bc 32 ad 2f 3e 30 2b 16 3e
       0.0018370266 -0.011248987 0.17155913 0.14664912
000130 fc a6 ef bc 1c 61 d1 bd d4 35 cc bd 24 33 18 be
       -0.029254429 -0.102236 -0.099712044 -0.14863259
000140 6b d8 37 3d 9f 0c 20 3e 91 67 07 3e ed 67 60 3d
       0.044884127 0.15629815 0.13223101 0.05478661
000150 40 c1 24 3d 8e b3 31 3e 68 cf 85 3c f7 e1 97 3d
       0.04022336 0.17353651 0.01633425 0.07416146
000160 f4 cf 51 3c f1 93 3c bd de 49 89 3d 94 f1 a5 3d
       0.012805928 -0.046039525 0.06703542 0.08102718
000170 cf eb a8 3d aa fe 9f 3d 4d 6e 52 bd 28 ab 81 be
       0.08248102 0.07812245 -0.051374722 -0.25325894
000180 63 ef b7 bd 02 df 5c 3d 1b 4b 34 3d 3c 88 6f be
       -0.08981206 0.053923614 0.04401694 -0.23391813
000190 25 ac 82 bd 1b 15 12 be 56 ab 1a be 5a c6 a7 3d
       -0.0638049 -0.14265864 -0.15104422 0.081921294
0001a0 0c 13 c9 3d 8f e6 27 3d 49 e4 e4 bc 09 41 c2 3d
       0.09818086 0.040991362 -0.027940886 0.09485061
0001b0 3f 3d df 3d f9 f8 81 3c 7d d0 70 bd d0 ef 51 be
       0.10900354 0.01586579 -0.05879258 -0.20501637
0001c0 66 63 6c bc f5 39 ab bc 8a 79 b9 3d d8 b5 1e 3d
       -0.014427995 -0.02090166 0.09056385 0.03874764
0001d0 43 c5 19 ba 8c a2 39 be 26 c0 74 bd 91 d2 e9 3c
       -0.0005865881 -0.18128413 -0.05975356 0.028542789
0001e0 d5 a6 a7 bb ac a0 08 3e 39 08 32 bb 86 4d b8 bd
       -0.0051163235 0.13342541 -0.0027165546 -0.089991614
0001f0 25 20 37 3d a9 17 52 bd 74 5e e0 bc c0 53 38 3d
       0.04470839 -0.051292095 -0.027388789 0.045001745
000200 07 20 3c bc 51 14 a3 bd 88 5c f7 3d 9d 68 ec 3c
       -0.011482245 -0.079628594 0.12078196 0.028858477
000210 27 23 46 3e 0e 1f c4 bd d3 82 37 3e c3 87 2f bd
       0.19349347 -0.09576236 0.17920999 -0.04285408
000220 76 04 a0 bc 03 ce d3 3b 3d 21 5a 3d 4d 99 8f bc
       -0.019533377 0.0064637675 0.053254355 -0.017529154
000230 77 3e 54 bd e2 a0 0e bd 54 6a 1d 3e 33 81 46 bc
       -0.051817384 -0.0348214 0.15372592 -0.012115764
000240 06 cb b5 3d 8d 11 c7 3d f6 d4 48 3d 82 77 8d 3c
       0.08876614 0.097201444 0.04903122 0.0172689
000250 93 9b fb 3d be db e9 bc 93 b6 03 bd 29 e5 18 be
       0.12285533 -0.028547164 -0.03215654 -0.14931168
000260 bc ca 0e bd 5d a3 5e bd 26 19 22 3e dc 73 32 3b
       -0.03486131 -0.054355014 0.15829906 0.0027229702
000270 71 cf f4 3c 06 dc 6c bd 45 8b 63 3e cd 7e a0 bd
       0.029884072 -0.05782702 0.22221096 -0.07836685
000280 a1 5a 3b bb 30 0e 41 3d ff d0 c1 bd 4e 47 22 be
       -0.0028587955 0.04713267 -0.09463691 -0.15847513
000290 2c 99 41 bd ac 97 7b 3e 38 f4 94 3d 15 42 ce 3d
       -0.047265217 0.24569577 0.072731435 0.10071198
0002a0 3f 78 d8 bd f5 1c 4e bd d3 0c ed 3d d0 ab 48 3d
       -0.1056981 -0.050320584 0.11574712 0.04899198
0002b0 9a 2c 03 3e 71 7c 68 bd cf 68 2d 3e cc dc 61 3d
       0.12809983 -0.0567593 0.16934513 0.05514221
0002c0 8c 11 5b 3d c8 62 d6 3c 7b 15 8d bc b8 3c 50 3c
       0.05348353 0.02617015 -0.017222157 0.012709789
0002d0 28 39 1c bd bb 85 7c 3d 73 f1 a1 3c e5 81 ae bb
       -0.038140446 0.061650973 0.019768452 -0.005325543
0002e0 ed b4 ad 3c bb 2e 8a bd d9 c1 76 bd cc d6 ad bc
       0.021204436 -0.067471944 -0.06024346 -0.021220587
0002f0 c7 b0 fe 3d 53 9c 2b bc 68 c9 36 bc dd f7 8c 3d
       0.12436061 -0.010474282 -0.011156417 0.06883214
000300 3e 28 dd bd 05 9c 10 3d 78 bc 6b 3c 22 5c ac bc
       -0.10798691 0.03530504 0.014388196 -0.021040026
000310 ae 90 07 3d de 97 98 3d 2c 25 c3 bd 02 fc c1 bc
       0.03309696 0.07450841 -0.09528574 -0.023679737
000320 e7 80 22 3e c1 59 4b 3d 2c 41 6b be d4 9f b9 3d
       0.15869485 0.049646143 -0.2297408 0.09063688
000330 c2 10 d1 bd c6 88 c7 3c 1b 44 16 bd a1 53 2d 3e
       -0.102082744 0.02435721 -0.036686044 0.16926433
000340 3d 6a a0 bd 11 ef 3d 3c a4 90 89 bd 38 c7 56 3e
       -0.07832763 0.011592642 -0.06717041 0.20974433
000350 9f ec 37 3d 58 0e 72 bc e5 ff 01 3d fa ee 16 be
       0.044903394 -0.014773928 0.03173818 -0.147396
000360 db ef a3 bd 53 fa 01 3e c4 64 96 3d 42 4a 03 3e
       -0.08004733 0.12693147 0.07343438 0.12821296
000370 cc ec aa 3c 66 38 9f 3c 43 53 7f be e2 20 37 3d
       0.020864867 0.019436073 -0.24934106 0.044709094
000380 d6 b0 f0 bd 5a 3a fb 3c 20 a6 69 bc bc 4c 09 be
       -0.11752479 0.030667473 -0.014260799 -0.13408178
000390 74 43 d7 bd f6 dd a4 3e 5b 22 4d 3d c5 87 82 bd
       -0.105109125 0.32200593 0.050081592 -0.06373552
0003a0 a4 a4 98 3c 1c ed b0 3d 12 d5 f7 bc 32 81 4f 3d
       0.018633194 0.08638975 -0.030252967 0.05066032
0003b0 65 29 71 3d 77 5c d6 3b db 9c 8b 3e 05 f4 06 3e
       0.058877368 0.0065417844 0.2726811 0.13179024
0003c0 b6 62 58 3d db dc aa bd ca da 29 3d d9 1f 41 3e
       0.052828513 -0.08342906 0.04146842 0.18859805
0003d0 43 b2 37 3d d8 b0 c2 3d c6 cf 35 bd 2c e0 e5 bd
       0.044847738 0.095063865 -0.0443876 -0.11224398
0003e0 02 3c 1c bd cb a9 13 3e e0 b5 b8 3d c9 0d 2b 3e
       -0.038143165 0.1442024 0.09019065 0.16704477
0003f0 9b 14 06 be d7 79 08 3c be 38 07 be da 15 fd 3d
       -0.13093798 0.00832983 -0.13205239 0.123576835

main.2.bias f4 [100]
000000 bf da 3f 40 20 da 3f 40 96 da 3f 40 fe dc 3f 40
       2.9977262 2.9976883 2.9977164 2.9978633
000010 cb 24 40 40 99 d7 3f 40 60 2b 40 40 c4 08 40 40
       3.0022457 2.997534 3.0026474 3.000535
000020 70 1d 40 40 c4 d5 3f 40 81 da 3f 40 5a 20 40 40
       3.0017967 2.9974222 2.9977114 3.0019746
000030 6f f0 3f 40 ff 1d 40 40 0c d9 3f 40 30 e0 3f 40
       2.99905 3.0018308 2.9976225 2.9980583
000040 a6 f1 3f 40 3c 26 40 40 1b dd 3f 40 06 e3 3f 40
       2.999124 3.0023336 2.9978702 2.9982314
000050 8b 25 40 40 b1 f3 3f 40 28 db 3f 40 0e da 3f 40
       3.0022914 2.9992487 2.9977512 2.997684
000060 fe 13 40 40 dd ea 3f 40 f1 24 40 40 16 dd 3f 40
       3.0012202 2.99871 3.0022547 2.997869
000070 a5 e2 3f 40 42 15 40 40 5e 28 40 40 f5 e2 3f 40
       2.9982083 3.0012975 3.0024638 2.9982274
000080 6c d7 3f 40 b7 24 40 40 15 02 40 40 3b e0 3f 40
       2.9975233 3.002241 3.000127 2.998061
000090 9c dc 3f 40 03 1e 40 40 6c 23 40 40 a8 22 40 40
       2.99784 3.0018318 3.002162 3.0021152
0000a0 26 23 40 40 48 dc 3f 40 83 1d 40 40 b1 dc 3f 40
       3.0021453 2.99782 3.0018013 2.997845
0000b0 9c de 3f 40 86 dd 3f 40 27 25 40 40 84 27 40 40
       2.997962 2.9978957 3.0022676 3.0024118
0000c0 2e d5 3f 40 c1 22 40 40 96 11 40 40 95 e3 3f 40
       2.9973865 3.0021212 3.0010734 2.9982655
0000d0 96 de 3f 40 63 d9 3f 40 d3 24 40 40 30 0f 40 40
       2.9979606 2.9976432 3.0022476 3.000927
0000e0 0b dc 3f 40 db 08 40 40 9d de 3f 40 c2 da 3f 40
       2.9978054 3.0005405 2.9979622 2.997727
0000f0 d9 1f 40 40 59 2d 40 40 23 1a 40 40 2f d7 3f 40
       3.0019438 3.0027678 3.0015953 2.9975088
000100 64 d3 3f 40 a4 20 40 40 ea 21 40 40 11 d9 3f 40
       2.9972773 3.0019922 3.00207 2.9976237
000110 22 27 40 40 c0 f7 3f 40 a4 e4 3f 40 14 26 40 40
       3.0023885 2.9994965 2.99833 3.002324
000120 fc 28 40 40 59 df 3f 40 3f de 3f 40 a8 21 40 40
       3.0025015 2.998007 2.9979398 3.0020542
000130 27 e5 3f 40 c0 2c 40 40 57 23 40 40 e1 30 40 40
       2.9983613 3.0027313 3.002157 3.0029833
000140 e6 d8 3f 40 ab dd 3f 40 ae dd 3f 40 f4 1f 40 40
       2.9976134 2.9979045 2.9979053 3.0019503
000150 1d e1 3f 40 34 1f 40 40 cf 27 40 40 a6 e7 3f 40
       2.9981148 3.0019045 3.0024297 2.9985137
000160 5f de 3f 40 7f f4 3f 40 87 d6 3f 40 b3 1a 40 40
       2.9979475 2.9992979 2.9974687 3.0016296
000170 4c df 3f 40 33 db 3f 40 58 24 40 40 ac 0c 40 40
       2.998004 2.9977539 3.0022182 3.0007734
000180 06 1d 40 40 85 dc 3f 40 a8 1b 40 40 8b df 3f 40
       3.0017715 2.9978344 3.001688 2.998019

main.4.weight f4 [6, 100]
000000 f8 06 16 3d 07 40 ea 3d 91 d9 54 3c 30 aa a6 3d
       0.03662774 0.114379935 0.012991325 0.081379294
000010 0b a6 34 3d 00 63 0b 3e 20 ee d1 bb 7a f0 78 bd
       0.044103663 0.13611984 -0.0064065605 -0.06077621
000020 cc 6a 0f 3e 1b b1 40 3d fd 3d 91 3d d7 c4 ad bc
       0.14005584 0.0470439 0.070919015 -0.021212025
000030 39 fc ee bd a0 12 26 3d b1 b8 75 3e c8 cd a8 ba
       -0.116692014 0.040545106 0.23996235 -0.001287871
000040 a1 ac dd bd 74 2c c5 3c 07 f9 51 3d be 3f 65 bd
       -0.10823942 0.024069048 0.05126288 -0.055968992
000050 72 2f 88 3c ae d2 51 bd cb fc a0 bc 31 87 89 3d
       0.016624186 -0.05122631 -0.019651791 0.06715239
000060 14 9f 5d 3e d9 e7 03 bd 43 75 e2 bd 06 aa ba 3d
       0.21642715 -0.03220353 -0.11057522 0.09114461
000070 29 a8 c6 3d 9a 18 17 3e 86 9f 2b bc db 05 00 3e
       0.09700043 0.14755479 -0.010475045 0.12502234
000080 3e 18 4a 3d c8 1e 8c bd 83 b6 1b 3d 6f 20 02 be
       0.049339525 -0.068418086 0.038015854 -0.12707685
000090 61 a8 2b 3e 24 0f 07 bd 9d b9 0d be 5e d0 c6 3d
       0.1676345 -0.032973424 -0.13840337 0.09707712
0000a0 9b 68 9b 3d 6b 46 6f bd 2e fe e5 3d 67 6d 59 3d
       0.07588311 -0.058416765 0.112301216 0.05308285
0000b0 ee 4a 8e 3d 9f 96 24 bd ae 6d 0e be 4b c8 0e bd
       0.069478855 -0.040182706 -0.13909027 -0.034858983
0000c0 b6 30 3a 3e 6f 1b c3 3c 4b de 06 be c4 92 4f 3d
       0.18182644 0.023816792 -0.13170736 0.050677076
0000d0 c7 0d e4 bd 28 ca 8a 3d 1a 12 82 bd af f0 06 3e
       -0.1113544 0.067768395 -0.06351109 0.13177751
0000e0 4e 2d 35 3a db c4 11 3c f9 d7 98 3d 97 14 0d 38
       0.0006911353 0.008897032 0.074630685 3.3636195e-05
0000f0 2c 49 28 3e 66 1b 32 be 5a 99 19 3b 5b 69 21 3e
       0.16434163 -0.17393264 0.0023437352 0.15762846
000100 51 58 93 3d 1c 86 21 be d7 c0 f2 bd 1a 4f 92 ba
       0.071945794 -0.15773815 -0.118531875 -0.001116249
000110 ed ac b2 3b a5 89 9b 3c b2 6e 83 3d 17 d8 f6 bc
       0.0054527433 0.018986532 0.06417598 -0.030132337
000120 d3 39 52 bd e6 86 54 be f7 12 b2 bd c1 95 98 bd
       -0.051324677 -0.20754585 -0.086950235 -0.07450438
000130 db 59 c7 bd ec ae e4 bd 12 44 00 bd 8d ac 4e be
       -0.097339354 -0.11166176 -0.031314917 -0.2018301
000140 f3 af 34 3d 08 5d c8 3d 85 d1 db 3d 31 e4 9f 3d
       0.04411311 0.09783369 0.10733322 0.07807196
000150 d8 8d 15 3c a6 5d 05 be 8f e5 af bc b8 10 30 be
       0.0091280565 -0.13024005 -0.021471767 -0.17193878
000160 13 af 8c bd e6 92 06 3c 49 d4 99 3d bc 43 54 3e
       -0.0686933 0.008213734 0.07511193 0.20728964
000170 74 91 8f 3d 94 d4 fb 3c 48 bd 63 be 64 01 09 3e
       0.07010165 0.030741014 -0.22240174 0.13379437
000180 b6 85 b8 3d 4f f2 5d 3d 9f cc ef bc 55 6e 8d 3d
       0.09009878 0.05418616 -0.029272376 0.0690581
000190 5b a3 c1 3d 5a 4d ea 3d 95 b3 cc 3d f0 b7 53 3d
       0.09454986 0.11440535 0.0999519 0.05168909
0001a0 d8 f4 83 be ef 39 df 3d 37 5d 46 be 1c 63 07 3d
       -0.25772738 0.10899722 -0.19371496 0.033053502
0001b0 88 49 ca bd d4 1e d3 3d 65 59 86 3e 2d a4 e0 bd
       -0.09877306 0.103086144 0.26240078 -0.10968814
0001c0 47 98 b5 3c a9 9e 6f bd d6 af f0 3d eb 49 1c 3d
       0.022167338 -0.05850092 0.11752288 0.03815643
0001d0 4b 18 d5 ba a6 8d 8c be c2 a8 0e 3d 25 33 40 3d
       -0.001625785 -0.2745182 0.03482891 0.046923775
0001e0 a8 6c 6a bd e9 00 27 3d e7 ec c2 3d ab 49 7c 3c
       -0.05723253 0.040772352 0.09517842 0.015398423
0001f0 46 b4 8b bd c9 e0 55 bb 50 31 89 be 3a d7 71 3e
       -0.06821494 -0.0032635203 -0.26795435 0.23617259
000200 7a 87 68 bc 7f 77 10 bd 22 b0 2a bd d8 df 29 bc
       -0.014192456 -0.03527021 -0.04167188 -0.01036831
000210 08 41 26 3d 3f 18 b4 bd 1c ee 28 bd 16 5e f2 3d
       0.040589362 -0.08793687 -0.041242704 0.11834352
000220 c5 87 bf 3d 38 a3 f6 bb 12 84 42 be c3 3d 70 be
       0.09352068 -0.0075267814 -0.18995693 -0.2346106
000230 6b 4b 85 bd 70 22 fc 3d bf 73 97 bd 1d a2 b1 3d
       -0.065085255 0.12311256 -0.07395124 0.08673499
000240 ab 9f 67 3d 17 1c 79 3d 94 1a 03 be f9 5b 4d be
       0.056548756 0.060817804 -0.12803108 -0.20054616
000250 9c b6 9f 3d bc a7 68 bd 80 9f b0 bb 88 40 38 3d
       0.07798502 -0.05680059 -0.0053901076 0.044983417
000260 21 97 34 3e f8 55 d5 3d 8e 41 39 be 3d e9 42 bc
       0.17635776 0.10416788 -0.18091413 -0.011896429
000270 38 d8 29 3e 08 a6 96 bc 7f f7 83 3c 51 69 22 3e
       0.16586387 -0.018389717 0.016109226 0.15860488
000280 05 93 44 be d8 be d4 bd 8c e6 65 3a 29 bd 80 3d
       -0.19196709 -0.10387963 0.0008770011 0.062860794
000290 61 50 57 3d 28 c3 22 bd 51 ba bf bc 9e 65 88 3e
       0.05256689 -0.039736897 -0.023404272 0.26640028
0002a0 f4 66 9a bd f4 2f 40 bd be 0d 2e 3e 63 f8 11 be
       -0.07539168 -0.04692073 0.1699743 -0.14254908
0002b0 0e 73 18 be de 27 64 3e b4 dc 17 3e df 5b af bb
       -0.1488764 0.22280833 0.14830285 -0.005351528
0002c0 08 8d b6 3d 6c 69 aa bc 20 21 69 bd 3b 99 b1 bd
       0.08913618 -0.020802222 -0.056916356 -0.086718045
0002d0 89 e6 97 3d d0 aa 0b 3e de 9e 1b 3d 5d bf d1 bd
       0.07417018 0.13639379 0.037993304 -0.10241578
0002e0 64 51 d2 3b 6a 03 af bd 95 a6 e4 bd a5 97 8b 3d
       0.006418394 -0.08545573 -0.111645855 0.06816033
0002f0 61 2d 13 3e cb 49 61 3d d9 e1 ef 3d 9a cd d1 bd
       0.1437278 0.055002015 0.11712999 -0.102442935
000300 53 11 a1 3c 0b eb 77 3e cc f9 b3 bb 7e aa 3e 3b
       0.019661581 0.24210756 -0.0054924246 0.002909332
000310 1b f3 9c bd 0b aa 38 3e 0a a5 02 bd 17 1e 9b 3d
       -0.07663556 0.18033616 -0.031895675 0.075740986
000320 d2 c9 d1 3b a8 29 05 3d 4d 21 4c bd 5c da 11 3e
       0.0064022327 0.03251043 -0.049836446 0.14243454
000330 2d d8 f8 bc c0 72 4e 3c 43 4a 67 3c 24 1a b9 bd
       -0.030376518 0.012600601 0.0141168265 -0.09038189
000340 b8 51 5a be d2 a4 85 bc 23 4f 16 bd 10 54 fc bd
       -0.21320236 -0.016313944 -0.036696564 -0.12320721
000350 0b 6e a0 3d c9 ce 72 3c 17 e1 26 bb ab 00 54 3d
       0.07833489 0.014819809 -0.0025463754 0.05175845
000360 96 a1 15 3e 3d 39 8c bd 2e 14 ad 3d ab f3 66 bd
       0.14612421 -0.06846855 0.084511146 -0.056384724
000370 ad 3b 36 bc 54 15 bb bc 4e ac b2 bd 60 02 12 bd
       -0.011122626 -0.022837318 -0.08724271 -0.035646796
000380 0f a5 fd bd fd 9b 6d 3d b9 fc 34 bd 00 c0 9a bc
       -0.12384998 0.05801009 -0.044186328 -0.01889038
000390 04 83 35 3e 0b 40 2e be 32 bd 48 3d ea 3d cb 3c
       0.1772576 -0.17016618 0.049008556 0.024809796
0003a0 52 9d d0 bc 28 86 78 3d 48 cd a2 3d e8 c0 18 3e
       -0.025465641 0.060674816 0.079493105 0.14917338
0003b0 61 3e 8e bd 27 5d 85 bd eb 26 14 be 15 18 cc 3d
       -0.069454916 -0.06511908 -0.14467971 0.09965531
0003c0 64 d8 67 bd 7f 48 8d bc 20 d3 d0 bd 2c 4b 6d 3d
       -0.05660285 -0.017246483 -0.10196519 0.057933018
0003d0 a8 3a 16 3e 76 47 49 bb 35 12 5a bd 9e 3c ae bb
       0.14670813 -0.003071276 -0.05324002 -0.0053172847
0003e0 28 47 75 bd 10 6e 95 bd 6c f0 ce 3d 8e cb 46 3d
       -0.059882313 -0.072963834 0.101044506 0.04853397
0003f0 4e 3b 89 3c 7b b1 7a 3d 6c 2a 77 bd d3 fe 20 be
       0.016751911 0.061204415 -0.06034319 -0.15722208

main.4.bias f4 [6]
000000 3c e2 3f 40 27 db 3f 40 57 e5 3f 40 f8 09 40 40
       2.9981833 2.997751 2.9983728 3.0006084
000010 bb 0a 40 40 bd 2f 40 40
       3.000655 3.0029137
