Network results/netG_mu_Heston1-13-9-40-z.pt (torch, 47703 bytes, 6 tensors)

main.0.weight f4 [100, 6]
0	0xbd611041	-0.05494714
1	0xbcb63420	-0.022241652
2	0x3da971d4	0.08273664
3	0xbdbf1bed	-0.09331498
4	0x3ccd4f29	0.02506216
5	0x3ad159d2	0.0015972203
6	0xbd8d9124	-0.06912449
7	0xbda909ec	-0.082538456
8	0xbc5cb49c	-0.013470795
9	0x3e253747	0.16134368
10	0xbd0fe2d3	-0.035128426
11	0x3e279db7	0.16368757
12	0xbdfec7f1	-0.124404795
13	0xbd27e946	-0.04099395
14	0xbe41ff6f	-0.18945096
15	0xbba812ce	-0.005129195
16	0xbceb59cd	-0.028729344
17	0x3ce2cd93	0.027685916
18	0x3dca5777	0.09879964
19	0xbd203509	-0.03911308
20	0xbd5cc5c9	-0.05389956
21	0x3d96aea2	0.07357527
22	0x3e1035c7	0.14083014
23	0xbcc33607	-0.023829473
24	0xbe4ba54e	-0.19887277
25	0x3dd63a4e	0.104603395
26	0xbd344294	-0.044008806
27	0xbe03e174	-0.12878972
28	0xbe872a95	-0.26399675
29	0xbd7086d9	-0.05872235
30	0xbdeb0057	-0.11474674
31	0xbd84f5d9	-0.06492204
32	0x3d6c9e6f	0.05776828
33	0xbde98e0b	-0.11404046
34	0xbcd49cb0	-0.02595362
35	0xbc1f6817	-0.009729407
36	0xbe444b7c	-0.1916942
37	0x3af5d494	0.001875537
38	0xbd8fe5f5	-0.07026283
39	0xbdb1123f	-0.08646058
40	0xbd8fe130	-0.07025373
41	0x3dd76027	0.105163865
42	0x3d9765a6	0.07392435
43	0x3e43f7dc	0.1913752
44	0xbd9460b4	-0.07245007
45	0x3e1ff241	0.15619756
46	0xbd57c9b9	-0.052682612
47	0x3e6774ac	0.226031
48	0x3bb14bbb	0.005410639
49	0xbd941eab	-0.07232412
50	0x3e33799e	0.17526862
51	0xbb8c7572	-0.0042864615
52	0xbdd74cf6	-0.10512726
53	0x3d2b3769	0.04180089
54	0x3c92246e	0.017839637
55	0xbe03af90	-0.1285994
56	0xbc456b78	-0.012049548
57	0xbdc00b9e	-0.09377216
58	0x3e40201d	0.1876225
59	0xbe57ea90	-0.21085572
60	0x3da44ffc	0.08023068
61	0xbd52257f	-0.05130529
62	0x3e488912	0.19583538
63	0x3d555821	0.052086
64	0x3cb129df	0.021626411
65	0x3dc9500f	0.09829723
66	0xbd30ccdc	-0.04316412
67	0x3d590e39	0.05299208
68	0xbd349f4c	-0.04409723
69	0xbd840989	-0.06447131
70	0x3d4a94a0	0.049458146
71	0xbc9dd661	-0.019267263
72	0x3e05827d	0.13038059
73	0xbd88ad26	-0.066736504
74	0x3d6981e0	0.057008624
75	0x3c670b3e	0.014101801
76	0xbdb0ac62	-0.086266294
77	0xbdcad538	-0.099039495
78	0x3dbd1f75	0.092345156
79	0xbcf7d6e5	-0.030253837
80	0xbdaa2384	-0.08307555
81	0xbe1e4c2a	-0.15458742
82	0x3dbb7945	0.0915399
83	0xbd15acd8	-0.03654179
84	0x3cad0694	0.0211213
85	0x3e03006f	0.12793134
86	0xbcba028d	-0.022706294
87	0xbd6fad78	-0.058515042
88	0xbda74e03	-0.081691764
89	0xbc35460f	-0.011064067
90	0x3e46b778	0.19405925
91	0xbdb66bcf	-0.089072816
92	0x3c5ba060	0.013404936
93	0x3d9237bc	0.07139537
94	0x3e3b2f50	0.18279767
95	0x3e0d268f	0.1378424
96	0xbbadec0c	-0.00530768
97	0x3ddacc01	0.10683442
98	0x3c52f054	0.0128746815
99	0x3d5d10c4	0.053971067
100	0x3db41b2d	0.08794246
101	0xbda65f21	-0.08123613
102	0xbe5ab924	-0.21359688
103	0x3e16f4ee	0.14741871
104	0x3e07d359	0.13264216
105	0xbdec8a22	-0.11549784
106	0x3dced53b	0.10099264
107	0x3b8005b0	0.003906928
108	0x3dc43078	0.09579557
109	0x3dd550ea	0.10415824
110	0xbe03cb3d	-0.12870498
111	0xbe04d456	-0.12971625
112	0x3e602e38	0.21892631
113	0xbd74fcb9	-0.059811328
114	0x3cff84ab	0.03119119
115	0x3d572f9e	0.052535646
116	0xbd914a22	-0.07094218
117	0x3c827c42	0.015928391
118	0x3dbea4b5	0.09308759
119	0xbdc251b8	-0.09488243
120	0x3cb3ca1c	0.02194696
121	0xbcc1555c	-0.023600273
122	0x3c0aee93	0.008479732
123	0x3d26c9c3	0.04071976
124	0x3dadaaa6	0.08479814
125	0x3dc9fe5f	0.098629706
126	0x3c684bac	0.014178198
127	0xbdead6b6	-0.11466734
128	0x3d7f8c6d	0.06238978
129	0x3c7c2b84	0.015391234
130	0x3e413f6c	0.1887185
131	0xbaac5e44	-0.0013150652
132	0xbd9f66b1	-0.07783259
133	0x3ccfccc5	0.025366196
134	0x3ba84c2a	0.0051360326
135	0x3e303e77	0.17211328
136	0xbe44a17b	-0.19202225
137	0xbd1d819a	-0.038453676
138	0xbccf664c	-0.025317334
139	0x3d7e8053	0.0621341
140	0xbdbeaf38	-0.09310764
141	0x3bc00ae9	0.0058606756
142	0xbdf4cff9	-0.1195373
143	0xbcfc878b	-0.03082635
144	0x3d81bf9c	0.06335375
145	0x3e99885f	0.29986855
146	0x3e05fa46	0.13083753
147	0x3d2fb6e5	0.04289903
148	0xbd82241c	-0.063545436
149	0xbcef0cee	-0.02918097
150	0xbd054afc	-0.032542214
151	0xbdd8b21f	-0.10580849
152	0x3ab52b7e	0.0013822166
153	0x3d56d447	0.052448537
154	0xbd30a84a	-0.043129243
155	0xbdc62b33	-0.09676208
156	0xbdf6c6f4	-0.12049666
157	0xbd8ba3d3	-0.06818356
158	0xbe15c92a	-0.14627519
159	0xbd19e03d	-0.037567366
160	0xbe173f98	-0.14770353
161	0x3d4d35b2	0.050100036
162	0x3d9ff38b	0.07810124
163	0xbd8a4bae	-0.06752716
164	0x3d19cfec	0.037551805
165	0x3d83668d	0.064160444
166	0xbdae0e81	-0.0849886
167	0xbe5d62f1	-0.21619774
168	0x3d737f5e	0.05944764
169	0xbd39506c	-0.045242712
170	0xbdb8ff04	-0.09033015
171	0xbe0afe66	-0.13573608
172	0xbb97953b	-0.004625944
173	0x3c67f4fa	0.014157528
174	0x3e14cb63	0.14530711
175	0xbe78654a	-0.24257389
176	0x3dcf4cd3	0.10122075
177	0x3d1dd726	0.03853526
178	0x3d68744c	0.056751534
179	0x3e5de23d	0.21668334
180	0x3d2c7692	0.042105265
181	0x3ce82102	0.028336052
182	0x3d234a12	0.03986556
183	0x3de2e1d8	0.110782325
184	0x3df37d4d	0.118891336
185	0x3dc774b3	0.097390555
186	0x3dbe6889	0.09297282
187	0x3db5e486	0.08881478
188	0xbe015039	-0.12628259
189	0xbd03f99f	-0.03222048
190	0xbd893e3e	-0.06701325
191	0xbdaa050e	-0.08301745
192	0xbdc67cb0	-0.09691751
193	0xbd22ea95	-0.039774496
194	0x3db4a50e	0.08820544
195	0xb9b2a490	-0.00034073414
196	0xbdfe53b0	-0.12418306
197	0x3d3be8b4	0.04587622
198	0x3d12054e	0.03564959
199	0xbd3825ba	-0.044957854
200	0x3e5eebf8	0.21769702
201	0x3c7bfeb2	0.015380548
202	0x3d413706	0.047171615
203	0xbd6de974	-0.058083966
204	0xbc89ea26	-0.016835283
205	0x3e0428b3	0.1290615
206	0xbc9022cd	-0.01759472
207	0x3e0060c7	0.12536918
208	0xbde4fee4	-0.11181429
209	0x3d5d7c23	0.054073464
210	0x3d301e4c	0.042997643
211	0x3e01d689	0.12679495
212	0xbe423064	-0.18963772
213	0xbd4e3e68	-0.050352484
214	0xbde94d25	-0.11391667
215	0x3dffe043	0.124939464
216	0x3d059029	0.032608185
217	0xbd073d42	-0.033017404
218	0x3c5ed5cc	0.013600778
219	0xbc118734	-0.008882333
220	0x3e3bd29b	0.18342058
221	0x3e59a91b	0.21255915
222	0xbdd34e75	-0.10317699
223	0x3d952dfa	0.0728416
224	0x3d46b534	0.048512653
225	0xbdbdb52e	-0.09263073
226	0x3e1c0d09	0.15239348
227	0x3d18978f	0.037253913
228	0x3cc9ac63	0.024618333
229	0xbdb11f5e	-0.08648561
230	0x3dc6f81a	0.0971529
231	0xbdbe8a4e	-0.09303723
232	0xbde9ed01	-0.11422158
233	0x3e0b8190	0.13623643
234	0x3dcc3dce	0.09972726
235	0x3df85562	0.121256605
236	0xbd38444f	-0.04498702
237	0x3da7b550	0.081888795
238	0x3ce9da9b	0.028546622
239	0x3ce59fd9	0.028030323
240	0xbd902098	-0.07037467
241	0xbdd511c0	-0.10403776
242	0x3df41762	0.119185224
243	0x3db7e7c9	0.089797564
244	0x3b555608	0.00325525
245	0x3d59e7ed	0.053199697
246	0xbd1de840	-0.03855157
247	0xbd834e4f	-0.064114206
248	0x3da2d527	0.07950812
249	0xbdb8c0f4	-0.09021178
250	0xbd8f9a97	-0.070119075
251	0x3e130a33	0.1435936
252	0xbda2c494	-0.079476506
253	0x3e62f728	0.22164595
254	0xbcfeb09d	-0.031090075
255	0xbd89668c	-0.067090124

main.0.bias f4 [100]
0	0x3f7f6366	0.99761045
1	0x3f80514a	1.0024807
2	0x3f80516d	1.0024849
3	0x3f7f4d44	0.99727273
4	0x3f80669c	1.0031314
5	0x3f804479	1.0020896
6	0x3f7f4bac	0.9972484
7	0x3f7f4d14	0.99726987
8	0x3f80575e	1.0026662
9	0x3f8039c9	1.0017635
10	0x3f80515b	1.0024828
11	0x3f7f3b21	0.996996
12	0x3f7f9c23	0.9984762
13	0x3f7f50fb	0.9973294
14	0x3f7f6202	0.99758923
15	0x3f804a19	1.0022613
16	0x3f7f6d3a	0.9977604
17	0x3f806983	1.00322
18	0x3f805a3f	1.0027541
19	0x3f7f8447	0.99811214
20	0x3f7f495d	0.9972132
21	0x3f7f400f	0.9970712
22	0x3f7f4382	0.99712384
23	0x3f7ffbc5	0.99993545
24	0x3f7f6578	0.99764204
25	0x3f805edc	1.0028949
26	0x3f7f8623	0.9981405
27	0x3f805181	1.0024873
28	0x3f7fb654	0.99887586
29	0x3f805264	1.0025144
30	0x3f805c91	1.0028249
31	0x3f7f6e5f	0.9977779
32	0x3f805df5	1.0028673
33	0x3f80313e	1.0015028
34	0x3f803600	1.001648
35	0x3f807d92	1.0038321
36	0x3f7f64f6	0.9976343
37	0x3f804a54	1.0022683
38	0x3f80524d	1.0025116
39	0x3f806150	1.0029697
40	0x3f807516	1.0035732
41	0x3f805ee6	1.0028961
42	0x3f80688c	1.0031905
43	0x3f7f5b47	0.99748653
44	0x3f7f589b	0.99744576
45	0x3f805e91	1.0028859
46	0x3f8033ed	1.0015846
47	0x3f805d73	1.0028518
48	0x3f7f48a9	0.99720246
49	0x3f7f2c8a	0.99677336
50	0x3f804df7	1.0023793
51	0x3f805cde	1.0028341
52	0x3f7f8251	0.9980822
53	0x3f8032dd	1.0015522
54	0x3f7fb2ac	0.99882007
55	0x3f7f5458	0.99738073
56	0x3f7feef8	0.9997401
57	0x3f80527c	1.0025172
58	0x3f804ff0	1.0024395
59	0x3f7fa000	0.99853516
60	0x3f7fa426	0.99859846
61	0x3f805212	1.0025046
62	0x3f805c66	1.0028198
63	0x3f803579	1.0016319
64	0x3f7ff950	0.99989796
65	0x3f7f6f07	0.9977879
66	0x3f805a46	1.0027549
67	0x3f7f5972	0.9974586
68	0x3f7fbc11	0.9989634
69	0x3f7f8657	0.9981436
70	0x3f7f6490	0.9976282
71	0x3f803a4c	1.0017791
72	0x3f7f2862	0.99670994
73	0x3f800dde	1.0004232
74	0x3f7f7739	0.99791294
75	0x3f8057a5	1.0026747
76	0x3f8008a1	1.0002633
77	0x3f7f489c	0.9972017
78	0x3f8054c5	1.002587
79	0x3f7ff179	0.99977833
80	0x3f805cc7	1.0028313
81	0x3f805261	1.002514
82	0x3f802e68	1.0014162
83	0x3f7fccc3	0.99921817
84	0x3f7fcdb9	0.9992328
85	0x3f802f8b	1.0014509
86	0x3f8036e8	1.0016756
87	0x3f7fbe26	0.9989952
88	0x3f7f4f28	0.9973016
89	0x3f7f6fe1	0.9978009
90	0x3f7f71ca	0.99783003
91	0x3f802ee6	1.0014312
92	0x3f7f5080	0.9973221
93	0x3f7fefe0	0.99975395
94	0x3f806a9f	1.0032538
95	0x3f806946	1.0032127
96	0x3f800c71	1.0003797
97	0x3f805546	1.0026023
98	0x3f806eaa	1.0033772
99	0x3f806693	1.0031303

main.2.weight f4 [100, 100]
0	0x3c8d9511	0.017282994
1	0x3c867690	0.016413957
2	0x3d34aa3a	0.044107653
3	0x3d7699f2	0.060205407
4	0x3d0d22b6	0.03445693
5	0x3debfe10	0.11523068
6	0x3dde6d26	0.10860662
7	0x3b43240a	0.002977612
8	0x3decbd0d	0.11559496
9	0x3d8542ad	0.06506858
10	0x3d177efb	0.036986332
11	0xbd5bdc12	-0.053676672
12	0x3d49c4ca	0.04925994
13	0x3e24de9f	0.16100548
14	0x3e31f253	0.17377596
15	0x3bc9cc1d	0.0061583654
16	0xbe0d7476	-0.13813958
17	0x3d83309a	0.064057544
18	0xbd891518	-0.066934764
19	0x3dbea241	0.09308291
20	0xbdf93784	-0.12168792
21	0x3c46c014	0.012130756
22	0xbd33fdbc	-0.04394315
23	0xbbcd6f1f	-0.00626935
24	0x3cae9aa1	0.021313967
25	0xbe24125e	-0.16022632
26	0x3d602ee4	0.05473222
27	0x3d5789f1	0.052621786
28	0x3d8897f2	0.06669606
29	0xbe2cbe6b	-0.16869514
30	0xbd11f104	-0.03563024
31	0x3e3c9dab	0.1841952
32	0xbd75fa5e	-0.060053222
33	0x3d454aa3	0.048166882
34	0x3e4701d8	0.19434297
35	0x3ea5eac8	0.32405686
36	0x3e15704a	0.14593616
37	0x3b94ab27	0.0045370045
38	0xbdff0d3b	-0.124536954
39	0x3e0622ff	0.13099287
40	0x3d81ed4b	0.06344088
41	0xbca07356	-0.019586246
42	0x3e1881ce	0.14893267
43	0x3d50185e	0.05080449
44	0xbb85368a	-0.0040653395
45	0xbe42ba20	-0.19016314
46	0x3dceaab4	0.10091153
47	0x3cc21ceb	0.02369543
48	0x3e758d1e	0.23979613
49	0x3dedce8c	0.11611661
50	0xbd8b3673	-0.06797495
51	0xbd7822f4	-0.06058021
52	0xbd8a1519	-0.06742305
53	0x3d7ca301	0.06167889
54	0x3e7a4335	0.244397
55	0xbe84bad7	-0.25923797
56	0x3dcf599f	0.10124516
57	0xbe2d6da7	-0.1693636
58	0x3e04d8ba	0.129733
59	0x3b39a762	0.0028328528
60	0xbc39af2c	-0.011333268
61	0xbe06325b	-0.13105147
62	0x3d88c836	0.06678812
63	0x3c71e33e	0.014763651
64	0x3bf57fd0	0.007492043
65	0xbd07c8a7	-0.03315034
66	0xbd87bf72	-0.06628312
67	0x3dd7a298	0.10529059
68	0x3d5848a1	0.05280364
69	0xbc10daaf	-0.008841201
70	0x3d9a064f	0.075207345
71	0xbe03d57c	-0.12874407
72	0x3cae3335	0.021264652
73	0x3b84e589	0.004055683
74	0x3d98f8be	0.07469319
75	0x3cfe7767	0.031062795
76	0x3d29835a	0.041385032
77	0xbd916ad1	-0.07100452
78	0xbc24b321	-0.010052473
79	0x3e38a743	0.18032555
80	0x3e04b522	0.12959722
81	0x3d627ff1	0.055297796
82	0xbc24b9dc	-0.010054078
83	0xbdf16df9	-0.11788554
84	0xbd9e897d	-0.077410676
85	0x3df275de	0.11838888
86	0x3d7fffed	0.06249993
87	0xbd2b0e40	-0.041761637
88	0xbcdea90f	-0.027180223
89	0xbe391220	-0.1807332
90	0x3e0c14be	0.13679788
91	0x3b81ab65	0.0039571994
92	0xbd85a7dc	-0.06526157
93	0x3c658852	0.014009552
94	0xbc229861	-0.009924025
95	0xbe5ae980	-0.21378136
96	0x3c8820c1	0.01661718
97	0x3e263b1c	0.16233486
98	0xbe39f633	-0.18160324
99	0xbdbf84b4	-0.09351483
100	0xbdb5316a	-0.088473156
101	0xbc6447d8	-0.0139331445
102	0x3de7dbfc	0.113212556
103	0x3e190d3b	0.14946453
104	0xbcffe70a	-0.031238098
105	0xbd659f92	-0.05606038
106	0x3afe094f	0.0019381436
107	0x3d25dc0d	0.04049306
108	0x3da8a43f	0.082344525
109	0x3e26877b	0.16262619
110	0x3cb76c76	0.022390585
111	0xbcf0ad7e	-0.029379603
112	0xbd8e73c8	-0.06955677
113	0xbe2b6af1	-0.16740014
114	0xbd80af1a	-0.06283398
115	0x3c120dc7	0.008914418
116	0xbd4975c2	-0.04918457
117	0xbce7fa9e	-0.028317746
118	0x3bdcbc7f	0.0067363377
119	0x3b8d7cfb	0.0043178773
120	0x3e73615d	0.2376761
121	0x3ca3a55f	0.019976316
122	0xbc817516	-0.015802901
123	0xbaf9fe0d	-0.0019072905
124	0x3c08f082	0.008358123
125	0xbd7cbb68	-0.061702162
126	0x3be34b6a	0.0069364803
127	0xbcd151e7	-0.02555175
128	0x3c86ef97	0.016471667
129	0xbd320cee	-0.043469362
130	0xbd876265	-0.06610564
131	0xbd9f6438	-0.07782787
132	0x3c5705dd	0.0131239565
133	0xbd4cfbff	-0.05004501
134	0xbc798b0a	-0.015230903
135	0xbc0537a0	-0.008130938
136	0xbd768b64	-0.060191527
137	0xbc4c1dbe	-0.012458263
138	0xbbe555b7	-0.0069987434
139	0xbbc3e576	-0.0059782816
140	0xbd890651	-0.06690658
141	0xbeb42d1b	-0.35190663
142	0x3e0845e6	0.13307914
143	0xbad2d0a9	-0.0016083914
144	0x3ea47955	0.3212382
145	0x3d5d18ee	0.053978853
146	0xbe3b68f5	-0.18301757
147	0x3e4a2938	0.19742286
148	0x3d95f5cf	0.07322275
149	0x3d34aa90	0.044107974
150	0x3cdba353	0.026811277
151	0x3dbf684d	0.09346066
152	0x3de9567e	0.1139345
153	0x3da900c8	0.08252102
154	0xbe6c56b3	-0.23079948
155	0x3bb3f18b	0.0054914407
156	0xbe211713	-0.15731458
157	0xbcee100f	-0.029060392
158	0xbc2dcfd3	-0.010608631
159	0x3d900ce5	0.070337094
160	0x3c8b1de5	0.016982028
161	0x3c429766	0.0118769165
162	0xbddf4b76	-0.10903065
163	0xbd9e57a7	-0.07731562
164	0xbcb69b98	-0.02229099
165	0x3da19d6d	0.07891355
166	0x3cb977bb	0.0226401
167	0x3df5adfa	0.11996074
168	0x3b8948ff	0.00418961
169	0xbe035a67	-0.12827455
170	0xbd5b6300	-0.05356121
171	0xbd66b27e	-0.056322567
172	0x3e4483f8	0.19190967
173	0xbd78225c	-0.060579643
174	0xbcbab6c1	-0.022792222
175	0x3ca0c12a	0.019623358
176	0xbe160889	-0.14651693
177	0x3dc2eb4a	0.09517534
178	0x3c075848	0.008260794
179	0xbe3e74bf	-0.18599223
180	0x3d7e4053	0.062073063
181	0xbd7ec764	-0.062201872
182	0x3d21b112	0.039475508
183	0xbd612adb	-0.05497251
184	0xbe06d8e2	-0.13168672
185	0xbd0bf873	-0.034172487
186	0x3dbf274d	0.09333668
187	0xbd2ad01d	-0.04170238
188	0xbe870d7e	-0.2637748
189	0xbd8874b1	-0.06662882
190	0x3e28f8f8	0.16501224
191	0xbc9a4f80	-0.018836737
192	0xbbd13395	-0.006384323
193	0x3d93874b	0.072035395
194	0x3e062873	0.13101368
195	0xbd3288ca	-0.043587483
196	0xb8a37b65	-7.79543e-05
197	0xbd21e88e	-0.039528422
198	0x3d800a68	0.06251985
199	0xbdf0f453	-0.11765351
200	0xbdaaff09	-0.08349425
201	0xbb8e7da6	-0.0043484746
202	0xbe56818b	-0.20947854
203	0xbdb76152	-0.08954109
204	0x3e566c3e	0.20939729
205	0x3d36aac7	0.04459646
206	0xbc8dc9a2	-0.01730806
207	0x3d1ffc2f	0.03905886
208	0x3e1bf75d	0.1523108
209	0x3e523f67	0.20531999
210	0x3e441ec9	0.19152369
211	0xbe3a62dc	-0.18201774
212	0xbcbed35f	-0.023294149
213	0xbc8b0b13	-0.016973054
214	0x3e043c55	0.1291364
215	0xbde7df46	-0.11321883
216	0xbe5894ef	-0.21150564
217	0x3cae70ff	0.021294115
218	0xbe0245b1	-0.12721898
219	0xbce70a27	-0.028203083
220	0x3d382605	0.044958133
221	0xbd31fa1b	-0.04345141
222	0x3e08fe12	0.1337817
223	0xbe48a53a	-0.19594279
224	0x3d8cf7e0	0.06883216
225	0x3d97f29b	0.0741932
226	0x3dceff2c	0.10107264
227	0xbdeba4b3	-0.11506023
228	0xbd7d9262	-0.06190718
229	0x3d6fc594	0.058538035
230	0xbcdb332f	-0.026757805
231	0x3d189204	0.037248626
232	0xbcd8d3e6	-0.026468229
233	0x3de36b3d	0.111044385
234	0xbe27cd8d	-0.16387005
235	0x3bcfbe72	0.0063398415
236	0xbda06c2e	-0.07833134
237	0x3d54be93	0.05193956
238	0x3b7d20ec	0.003862436
239	0x3e13b7d0	0.14425588
240	0x3d535727	0.051596787
241	0x3db59ea5	0.0886815
242	0xbc1f29f0	-0.0097145885
243	0x3cfb966f	0.03071138
244	0xbd2994b8	-0.041401595
245	0xbda8c852	-0.08241333
246	0xbdeefe52	-0.116696015
247	0x3da90a8c	0.08253965
248	0x3c288f50	0.010288075
249	0xbd237173	-0.039903115
250	0x3ddf405f	0.1090095
251	0xbca9acc6	-0.020712268
252	0xbd893226	-0.06699018
253	0x3ddc89f2	0.107684985
254	0xbd5a3cf8	-0.0532808
255	0xbce07ec4	-0.027404197

main.2.bias f4 [100]
0	0x3f8053d7	1.0025586
1	0x3f7f4000	0.9970703
2	0x3f7f8ddf	0.99825853
3	0x3f804090	1.0019703
4	0x3f7f4996	0.9972166
5	0x3f7f37dc	0.9969461
6	0x3f806085	1.0029455
7	0x3f7f6c89	0.99774987
8	0x3f80547a	1.002578
9	0x3f7fc18f	0.9990472
10	0x3f7f4986	0.9972156
11	0x3f7f7daf	0.9980115
12	0x3f7f20a6	0.9965919
13	0x3f7f4d77	0.99727577
14	0x3f805e08	1.0028696
15	0x3f804a3a	1.0022652
16	0x3f7fdd01	0.999466
17	0x3f806734	1.0031495
18	0x3f805d6d	1.0028511
19	0x3f7f54d3	0.99738806
20	0x3f7f3395	0.9968808
21	0x3f7f7090	0.9978113
22	0x3f8058fa	1.0027153
23	0x3f7f3ec9	0.9970518
24	0x3f7f227d	0.99662
25	0x3f7f41ec	0.99709964
26	0x3f7f67e9	0.9976793
27	0x3f7f1cf0	0.9965353
28	0x3f7f50cb	0.99732655
29	0x3f7f76c9	0.99790627
30	0x3f801958	1.0007734
31	0x3f804f74	1.0024247
32	0x3f806d2e	1.0033319
33	0x3f805e03	1.002869
34	0x3f7f7455	0.99786884
35	0x3f804dc1	1.0023729
36	0x3f7fec96	0.99970376
37	0x3f7f5af1	0.9974814
38	0x3f805c0f	1.0028094
39	0x3f805cdc	1.0028338
40	0x3f800896	1.000262
41	0x3f7f945a	0.9983574
42	0x3f8037b1	1.0016996
43	0x3f7f73ff	0.9978637
44	0x3f802931	1.0012571
45	0x3f7f6ae9	0.99772507
46	0x3f7f3b46	0.9969982
47	0x3f7fa113	0.99855155
48	0x3f7fa77d	0.9986494
49	0x3f7f569f	0.9974155
50	0x3f7fc3ee	0.9990834
51	0x3f802069	1.0009891
52	0x3f7fd5d6	0.9993566
53	0x3f806e9f	1.0033759
54	0x3f8053a1	1.0025522
55	0x3f7f84e8	0.99812174
56	0x3f7f2103	0.99659747
57	0x3f8052e1	1.0025293
58	0x3f805fd0	1.002924
59	0x3f805380	1.0025482
60	0x3f7f3e15	0.99704105
61	0x3f7f459e	0.997156
62	0x3f7f5fa7	0.9975533
63	0x3f7f20c2	0.9965936
64	0x3f7f4bd6	0.9972509
65	0x3f7f5c3b	0.9975011
66	0x3f7f38f9	0.9969631
67	0x3f7f3ed3	0.9970524
68	0x3f804dab	1.0023702
69	0x3f8056e4	1.0026517
70	0x3f805333	1.002539
71	0x3f801e26	1.00092
72	0x3f805731	1.0026609
73	0x3f805fed	1.0029274
74	0x3f7fcbb1	0.99920183
75	0x3f805cb5	1.0028292
76	0x3f7f4ce2	0.9972669
77	0x3f7f4d42	0.9972726
78	0x3f7f8b01	0.9982148
79	0x3f7f904d	0.9982956
80	0x3f7f87ef	0.99816793
81	0x3f7f536a	0.99736655
82	0x3f807788	1.0036478
83	0x3f805514	1.0025964
84	0x3f7f62a4	0.9975989
85	0x3f8018a3	1.0007519
86	0x3f7fc8e5	0.99915916
87	0x3f7f68d9	0.9976936
88	0x3f7f482b	0.99719495
89	0x3f802ff6	1.0014637
90	0x3f7f597f	0.99745935
91	0x3f80628a	1.0030072
92	0x3f7f538a	0.99736845
93	0x3f7febcf	0.9996919
94	0x3f8068ec	1.003202
95	0x3f7f3d86	0.9970325
96	0x3f805686	1.0026405
97	0x3f7f46d2	0.9971744
98	0x3f7f58f7	0.99745125
99	0x3f8054da	1.0025895

main.4.weight f4 [6, 100]
0	0x3cb06f7a	0.021537531
1	0x3d54c420	0.051944852
2	0xbc2a510d	-0.010395301
3	0x3d334290	0.04376465
4	0xbe139259	-0.14411296
5	0x3d6dab2b	0.058024567
6	0xbdc9f39c	-0.09860918
7	0xbcad83a0	-0.021180928
8	0x3d6778f3	0.05651183
9	0x3d35f704	0.044425026
10	0x3da096d3	0.078412674
11	0xbe1c9a0c	-0.15293139
12	0x3e53030d	0.20606633
13	0xbe0ca2d3	-0.13733988
14	0x3e0ef26a	0.13959661
15	0xbe08a341	-0.13343526
16	0xbcbe4025	-0.023223946
17	0x3da9226f	0.08258521
18	0x3ae11abf	0.0017174109
19	0x3d8e40ff	0.06945991
20	0x3d37cec1	0.04487491
21	0x3d5dc3b6	0.054141723
22	0x3dfbc60b	0.12293633
23	0x3d1c1489	0.03810552
24	0x3d83b181	0.064303406
25	0x3dcff346	0.101538226
26	0xbe0669ab	-0.13126247
27	0x3e28e7ff	0.1649475
28	0xbdc4b638	-0.09605068
29	0x3d1aaaa0	0.037760377
30	0xbe34fc8f	-0.17674468
31	0xbd96b441	-0.073585995
32	0xbe128ed3	-0.14312296
33	0x3db299e0	0.087207556
34	0xbc9efb78	-0.019407019
35	0xbe1cd418	-0.15315282
36	0xbd68fb13	-0.056880068
37	0x3dd2dd82	0.102961555
38	0xbd906432	-0.07050361
39	0x3d8048d0	0.06263888
40	0x3d6caec9	0.057783876
41	0x3d17eb66	0.037089728
42	0x3e6c6754	0.23086292
43	0x3c70657f	0.014672636
44	0xbe4e2995	-0.2013305
45	0xbdcf14b3	-0.1011137
46	0xbd8e41cd	-0.06946144
47	0x3d5bb416	0.05363854
48	0x3ddab64a	0.106793
49	0x3c670cc5	0.014102166
50	0xbda8bc0c	-0.08238992
51	0xbb0a57fa	-0.0021109567
52	0x3dabbfdb	0.08386203
53	0x3d275fe2	0.040862925
54	0xbe429445	-0.19001873
55	0xbe66acf6	-0.22526917
56	0x3e2b7412	0.16743496
57	0x3d063bb2	0.032771774
58	0x3d936790	0.07197487
59	0x3d19c9b8	0.03754589
60	0xbda53ed3	-0.080686234
61	0x3d493521	0.049122933
62	0x3cbbf374	0.022943236
63	0x3dd6bcbc	0.10485217
64	0x3d6e54c1	0.058186296
65	0xbd4d86d4	-0.05017741
66	0x3dd7975e	0.10526918
67	0x3d956311	0.07294286
68	0x3d0aa269	0.033846293
69	0xbdc84ba2	-0.09780051
70	0x3c93a497	0.018022818
71	0x3d080dee	0.03321641
72	0x3e8c7806	0.2743532
73	0x3c84a43c	0.016191594
74	0x3e0efed6	0.139644
75	0xbd43f156	-0.047837578
76	0x3d20350d	0.039113093
77	0xbd564364	-0.052310362
78	0x3e031a47	0.12802993
79	0x3d22fd7a	0.039792515
80	0xbc2bc849	-0.010484763
81	0xbdb58f0f	-0.08865177
82	0x3d76f092	0.06028802
83	0x3d5bd420	0.053669095
84	0xbdf75658	-0.12077016
85	0xbd95b2b1	-0.07309473
86	0x3eb3acd1	0.35092786
87	0x3d874d6b	0.06606563
88	0x3ded06d5	0.11573569
89	0x3e035f00	0.12829208
90	0xbcaed477	-0.021341546
91	0xbda08161	-0.07837177
92	0xbcd28970	-0.025700301
93	0xbe2a82d9	-0.16651477
94	0xbd972fc5	-0.07382158
95	0xbd9f7f39	-0.07787938
96	0xbd1c10c6	-0.038101934
97	0xbdd19bac	-0.1023477
98	0xbc52ed59	-0.012873971
99	0x3d30afe1	0.04313648
100	0x3d908575	0.07056705
101	0xbc7794ad	-0.015111131
102	0x3d1ea82b	0.038734596
103	0xbd921ab6	-0.07134001
104	0xbd453e4e	-0.04815512
105	0xbb68c106	-0.0035515442
106	0x3e06541e	0.13118026
107	0x3a131e37	0.00056121073
108	0x3e1b62e4	0.15174443
109	0xbd72c6b0	-0.059271514
110	0xbe17ef76	-0.14837441
111	0xbcb6bf35	-0.022307971
112	0xbd24ad27	-0.040204193
113	0xbe0dbfb4	-0.1384266
114	0x3d421d8e	0.047391467
115	0x3dad1e2f	0.08453023
116	0xbd98ed92	-0.07467188
117	0x3dcb09c2	0.099139705
118	0x3e3920a0	0.18078852
119	0x3be7974a	0.0070675956
120	0xbdcba5fb	-0.09943768
121	0xbd839d11	-0.064264424
122	0x3d23dffc	0.04000853
123	0xbd942822	-0.07234217
124	0xbcb36340	-0.021897912
125	0xbdb7b622	-0.08970286
126	0xbc94a29f	-0.01814395
127	0xbd0b9b40	-0.034083605
128	0xbdad194d	-0.08452091
129	0xbe2d0332	-0.1689575
130	0x3d52c3d8	0.051456302
131	0x3dc79214	0.09744659
132	0x3df52b35	0.11971132
133	0x3d936b69	0.07198221
134	0x3ca446f3	0.020053362
135	0x3da2b274	0.079441935
136	0x3d291c79	0.04128692
137	0xbdba4e29	-0.09096939
138	0xbb3782b5	-0.0028001491
139	0x3de1a0c8	0.11016995
140	0xbd85635b	-0.06513091
141	0xbd4b7b47	-0.049678113
142	0xbd22e243	-0.03976656
143	0xbcde2d43	-0.027121192
144	0x3d95bd0d	0.07311449
145	0xbda3c347	-0.079962306
146	0xbdd15c19	-0.10222644
147	0xbcff7d0b	-0.031187555
148	0xbb7ab6b1	-0.0038255865
149	0xbdd65e63	-0.104672216
150	0x3d17e824	0.03708662
151	0xbdbcdbf0	-0.09221637
152	0xbda81ee4	-0.08209017
153	0x3de0f08c	0.10983381
154	0x3cde973b	0.027171722
155	0xbd607319	-0.054797266
156	0xbdd28606	-0.10279469
157	0x3de9f6a6	0.114239976
158	0x3e07b656	0.1325315
159	0x3d795fb8	0.0608823
160	0xbd5ed58e	-0.05440288
161	0xbdef6dcd	-0.11690865
162	0xba61813e	-0.00086023274
163	0xbd29e276	-0.041475736
164	0xbe1e3535	-0.15449984
165	0xbdcb6911	-0.09932149
166	0xbda7bf60	-0.08190799
167	0xbcf54521	-0.02994019
168	0xbb2e7869	-0.0026622063
169	0xbbc87662	-0.006117628
170	0x3dde0eda	0.108426765
171	0x3e29a32b	0.1656615
172	0x3d84f5ca	0.06492193
173	0x3d9d648c	0.076851934
174	0xbd2e70ec	-0.04258816
175	0x3e1b0db9	0.15141954
176	0xbdfd502e	-0.12368809
177	0xbe7dc7cf	-0.24783252
178	0xbe049111	-0.12945963
179	0x3cb3e455	0.021959463
180	0x3d03c386	0.032168888
181	0xbd8337bf	-0.06407117
182	0x3df3a245	0.11896185
183	0x3df92ea4	0.12167099
184	0xbbf2874a	-0.0074013816
185	0x3dd260c9	0.102723666
186	0xbdcc86df	-0.09986662
187	0xbdbfc334	-0.09363404
188	0xbe7b6c92	-0.24553135
189	0xbc344d28	-0.011004724
190	0xbe169621	-0.14705707
191	0x3e0fcc8d	0.14042874
192	0xbdb4457a	-0.08802314
193	0x3dbc8030	0.09204137
194	0xbb37339a	-0.002795434
195	0xbdf2add8	-0.11849564
196	0x3cff8769	0.031192498
197	0xbdda1bba	-0.1064982
198	0xbd48365e	-0.048879974
199	0x3d6b2b64	0.057414427
200	0x3dbe1dd7	0.09283035
201	0xbc860c5f	-0.01636332
202	0xbde9f67f	-0.114239685
203	0x3ea25854	0.31708014
204	0xbcbb488d	-0.022861743
205	0xbd5a9197	-0.0533615
206	0xbda75e1a	-0.08172245
207	0xbd9fb8de	-0.077989325
208	0x3d820e25	0.06350354
209	0x3d8a2e02	0.067470565
210	0xbc9fdc19	-0.01951413
211	0xbe09c10a	-0.13452545
212	0xbe0229be	-0.12711236
213	0xbdb0a550	-0.08625281
214	0x3d1a0dd9	0.037610862
215	0xbcb84554	-0.022493996
216	0x3da3ea4f	0.08003675
217	0xbd40430d	-0.046938945
218	0xbc843e67	-0.016143037
219	0xbdac2032	-0.08404578
220	0x3ce5e4ed	0.028063262
221	0x3d4808d5	0.048836548
222	0x3c7c9462	0.015416237
223	0xbda7720c	-0.081760496
224	0xbce0e7af	-0.027454225
225	0xba8137db	-0.0009858565
226	0xbc246fb2	-0.010036396
227	0xbdca9a92	-0.09892763
228	0xbdc3f818	-0.095688045
229	0x3e0020d3	0.12512521
230	0xbd65d48a	-0.056110896
231	0xbd6b1bf4	-0.057399705
232	0x3d8657bf	0.06559705
233	0x3c433148	0.011913605
234	0xbd856c51	-0.065148
235	0x3b03731f	0.0020057631
236	0xbd9a3c8b	-0.07531079
237	0x3b8d6850	0.0043154135
238	0x3dc6cdd3	0.097072266
239	0xbc5af16b	-0.013363223
240	0x3de27e96	0.110593006
241	0x3d2131fc	0.03935431
242	0x3e3b5299	0.18293227
243	0xbe01555d	-0.1263022
244	0xbd8afea5	-0.06786851
245	0x3d85e759	0.06538267
246	0x3d3ac528	0.04559818
247	0x3d05bc68	0.03265038
248	0xbd1f5fcf	-0.03890973
249	0xbcc92943	-0.024555808
250	0xbd89e4bc	-0.06733081
251	0x3e297bfa	0.165512
252	0x3de65c55	0.1124808
253	0xbca49f98	-0.020095631
254	0x3d884e11	0.06655515
255	0x3d60bd94	0.054868296

main.4.bias f4 [6]
0	0x3f802f28	1.0014391
1	0x3f80546d	1.0025765
2	0x3f804eeb	1.0024084
3	0x3f7fb6fe	0.998886
4	0x3f800dc1	1.0004197
5	0x3f8010f5	1.0005175
