Network results/netG_sigma_Heston1-13-9-40-z.pt (torch, 519815 bytes, 10 tensors)

main.0.weight f4 [200, 6]
-0.038525514 -0.0071972595 0.1317634 0.11271595 0.029915446 0.15648338 0.057666045 -0.08449748
0.045518253 0.13502358 -0.05097435 -0.012978651 -0.12897272 0.14118418 -0.13071586 -0.13000347
-0.049650002 -0.19190024 -0.01034669 0.08728404 0.056169778 -0.09930651 -0.012036531 0.10249023
0.19825733 -0.13943379 -0.01588935 -0.08628744 0.21698068 -0.09988738 -0.0417638 -0.06241122
0.36107525 0.013744867 0.10121654 0.12987915 -0.04595053 0.23803352 0.07277585 0.102975704
-0.04274182 0.16517843 0.09476914 0.10540556 0.0117319655 -0.09882105 -0.063053064 0.08027598
0.030924892 0.10709259 -0.03283536 0.05888617 0.110493295 0.08399841 -0.10671826 -0.05375418
0.06764725 0.054853443 0.0055854935 -0.095913455 -0.11103045 0.009202559 -0.16629475 0.07770556
0.011824524 0.06844026 -0.028378766 -0.02411319 0.10785828 0.10090602 0.07424059 0.15609278
-0.076894574 -0.041464332 -0.022457613 -0.0439373 0.035600968 0.01391622 -0.06894377 0.13476112
0.020059487 -0.041913837 -0.08636378 -0.15644673 0.11809451 0.186688 -0.020815998 0.08283901
0.015357649 0.008087234 -0.046704292 -0.03314566 0.10941844 -0.062286302 0.09859788 -0.116499595
0.20398645 0.028272055 -0.047985755 -0.14409062 0.0012475994 -0.12202401 -0.053073913 0.0020708025
-0.047878433 -0.05722853 -0.06555953 -0.06359368 -0.20350456 0.18498932 0.005492655 0.16108064
-0.057817195 0.03718909 -0.039945133 0.0097755585 -0.20499589 0.11079472 -0.047622822 0.048386652
0.055767078 -0.057205576 0.18164681 0.04341178 -0.033736113 0.077490516 -0.07571158 -0.07591915
0.043895554 -0.12647362 0.047258705 0.035576608 -0.06978211 -0.15418704 0.036803693 -0.010774656
-0.1281347 0.06891819 0.048031896 0.20426111 0.0013043548 0.022412332 0.016493756 -0.018624047
-0.14172961 0.09238169 0.12254803 -0.14054132 -0.15012036 -0.05305384 0.010293535 0.013141095
-0.28483847 -0.025506515 0.050389998 0.117513865 -0.049637582 -0.0730151 0.110684924 -0.07134118
0.09303585 0.10023734 -0.1844022 -0.0859459 -0.10063526 -0.14221147 -0.031203676 -0.048028696
-0.12363131 -0.085322835 -0.024113607 0.026403807 -0.017040873 0.101741895 0.08125999 -0.020605491
-0.12167149 0.099651776 -0.1298344 0.076756835 0.008504685 -0.023493486 0.0044211303 -0.00955063
0.004053974 -0.11691313 -0.005822007 -0.018843805 0.12890938 0.058299657 -0.1028056 0.022057626
0.1288434 -0.045415357 0.1791863 0.030607823 0.18766594 0.15334937 -0.04378309 -0.06703434
-0.06922883 0.15893964 0.0068152216 -0.10386903 0.0011640255 -0.24451248 -0.012865731 -0.06788808
0.084280916 0.08720638 0.059440453 -0.16252252 -0.23940885 0.0203174 -0.01167684 -0.056031667
-0.13662997 -0.027322866 -0.0822706 -0.05411598 -0.04651298 0.025318047 0.17188443 0.09949436
-0.11158865 -0.014863264 0.07964645 -0.15203242 -0.11946199 -0.106604345 0.20919421 -0.059305154
-0.050894063 -0.05813962 -0.044150133 0.096507415 -0.03455384 0.05269015 0.13094863 -0.037494812
0.0235273 0.21416956 -0.06797283 0.050241247 -0.011128653 0.055957176 0.068136275 0.108635075
0.21200648 0.051193863 0.04270808 -0.11982949 -0.008761333 0.038681783 0.12552734 0.21471767
00000000: eecc 1dbd fdd6 ebbb fcec 063e 9fd7 e63d
00000010: 3d11 f53c 2e3d 203e 3b33 6c3d 040d adbd
00000020: 5971 3a3d 9f43 0a3e 7bca 50bd 68a4 54bc
00000030: 6d11 04be 9692 103e 61da 05be a11f 05be
00000040: cd5d 4bbd 7f81 44be 2a85 29bc fac1 b23d
00000050: 4812 663d 3661 cbbd df34 45bc 66e6 d13d
00000060: f803 4b3e bbc7 0ebe 622a 82bc 78b7 b0bd
00000070: 2f30 5e3e c191 ccbd 8510 2bbd e8a2 7fbd
00000080: dbde b83e 2732 613c 9e4a cf3d 0aff 043e
00000090: 9f36 3cbd 0fbf 733e 810b 953d ede4 d23d
000000a0: 0c12 2fbd 8924 293e 5316 c23d dfde d73d
000000b0: 6e37 403c b162 cabd f721 81bd bc67 a43d
000000c0: 3356 fd3c 5c53 db3d 5f7e 06bd a032 713d
000000d0: 4f4a e23d 5c07 ac3d 1a8f dabd 582d 5cbd
000000e0: a48a 8a3d 01ae 603d 8406 b73b 466e c4bd
000000f0: ef63 e3bd 54c6 163c 2c49 2abe 1824 9f3d
00000100: a6bb 413c 682a 8c3d 967a e8bc 0689 c5bc
00000110: cde4 dc3d d1a7 ce3d 730b 983d c9d6 1f3e
00000120: e77a 9dbd 81d6 29bd 07f9 b7bc 99f7 33bd
00000130: 52d2 113d db00 643c 6432 8dbd d2fe 093e
00000140: cb53 a43c d8ad 2bbd 7edf b0bd 9233 20be
00000150: 89db f13d 242b 3f3e 5086 aabc 80a7 a93d
00000160: a69e 7b3c 5180 043c 004d 3fbd bec3 07bd
00000170: c616 e03d ec1f 7fbd afed c93d 5797 eebd
00000180: d3e1 503e cc9a e73c b68c 44bd 7e8c 13be
00000190: 7d86 a33a b9e7 f9bd 0864 59bd 4db6 073b
000001a0: 2d1c 44bd 7768 6abd 1344 86bd 673d 82bd
000001b0: 8063 50be d76d 3d3e bbfb b33b 53f2 243e
000001c0: b9d1 6cbd 9653 183d 829d 23bd aa29 203c
000001d0: 71ea 51be 58e8 e23d 2610 43bd 1531 463d
000001e0: 056c 643d 6550 6abd 9f01 3a3e 8dd0 313d
000001f0: e12e 0abd 59b3 9e3d ac0e 9bbd 807b 9bbd
00000200: d3cb 333d 4d82 01be 5892 413d c7b8 113d
00000210: ece9 8ebd 35e3 1dbe 78bf 163d 2f88 30bc
00000220: be35 03be fb24 8d3d 18bd 443d d329 513e
00000230: e2f6 aa3a 119a b73c ea1d 873c 7591 98bc
00000240: 9121 11be 9d32 bd3d 76fa fa3d 10ea 0fbe
00000250: 27b9 19be fc4e 59bd 37a6 283c bf4d 573c
00000260: 59d6 91be 0af3 d0bc be65 4e3d 1cab f03d
00000270: c750 4bbd f188 95bd c7ae e23d 531b 92bd
00000280: 9489 be3d 3c49 cd3d eed3 3cbe 6704 b0bd
00000290: dc19 cebd e29f 11be da9e ffbc bdb9 44bd
000002a0: 6a32 fdbd bdbd aebd e689 c5bc cc4c d83c
000002b0: 4d99 8bbc 0e5e d03d a36b a63d d9cc a8bc
000002c0: e72e f9bd 3b16 cc3d 4ff3 04be b032 9d3d
000002d0: 3c57 0b3c 6975 c0bc 21df 903b 3f7a 1cbc
000002e0: 33d7 843b 2770 efbd 89c6 bebb 535e 9abc
000002f0: d200 043e 9fcb 6e3d be8b d2bd 32b2 b43c
00000300: 86ef 033e 7405 3abd 9d7c 373e 42bd fa3c
00000310: 802b 403e 9e07 1d3e e655 33bd 4d49 89bd
00000320: d8c7 8dbd 13c1 223e 3952 df3b 49b9 d4bd
00000330: 3792 983a 7b61 7abe c9ca 52bc e808 8bbd
00000340: 799b ac3d 4299 b23d d577 733d 4e6c 26be
00000350: 9827 75be ad70 a63c 3750 3fbc 7681 65bd
00000360: bae8 0bbe 34d4 dfbc 7d7d a8bd b8a8 5dbd
00000370: 6584 3ebd cb67 cf3c 7902 303e b3c3 cb3d
00000380: 9788 e4bd 0c85 73bc ae1d a33d 63ae 1bbe
00000390: 7da8 f4bd 6153 dabd 0237 563e f6e9 72bd
000003a0: 4b76 50bd cf23 6ebd c5d6 34bd aea5 c53d
000003b0: 5488 0dbd a0d1 573d 6617 063e 2994 19bd
000003c0: 53bc c03c 444f 5b3e 5735 8bbd c4c9 4d3d
000003d0: f454 36bc 5a33 653d 088b 8b3d 117c de3d
000003e0: 3a18 593e a8b0 513d abee 2e3d 2a69 f5bd
000003f0: b28b 0fbc ca70 1e3d 3d8a 003e f3de 5b3e

main.0.bias f4 [200]
0.99852276 1.000336 1.000482 0.9998855 1.0013531 0.9984565 0.99932474 0.9997736
0.99941915 1.0006214 0.9995833 0.9995163 0.9991704 0.99875134 1.0008551 0.9999388
1.0005242 0.9997524 0.9966189 0.99823236 0.99951345 0.9986249 0.9996026 0.9994078
0.9993795 0.99891156 0.9987452 1.0001009 1.0010583 0.999467 0.99965525 0.9994611
1.0001535 1.0011345 0.99859643 1.0012891 1.0008566 1.0017824 0.9999675 1.0002389
0.9990789 0.9983217 0.9994096 1.0007597 0.9992368 1.0005208 1.0006133 0.9988836
1.0009731 0.998745 1.0013043 1.0026475 1.0022857 1.000708 1.0011278 0.99912274
0.9988648 1.0022796 1.0009289 0.9987098 0.9996938 1.0014219 1.0003492 0.99923104
1.0008954 1.0005785 0.99931806 1.0015774 0.9999986 0.9988203 1.0011765 0.9988428
0.9995811 0.99864787 0.99919087 1.0003089 0.9997496 0.99758905 0.99904716 1.0007325
0.9996757 1.0005354 0.9996455 0.9998388 1.001694 0.9990801 0.99904895 1.0007373
0.99946964 1.000201 0.9988252 0.9990807 0.99898845 0.9999024 1.0007651 1.0008734
1.0009629 1.0008361 0.99875724 0.9999706 0.9997165 0.9996727 1.0005041 0.99982685
0.9990817 0.9991379 0.9991535 1.0003521 0.99979234 0.9994129 1.0006785 0.9998124
1.0013651 1.0011592 1.0010155 1.0012543 0.99966925 0.99977845 1.0000342 0.9986084
0.99992573 1.0006325 1.0003161 1.0014734 1.0006753 0.9995262 0.99985546 1.0000726
0.99957436 0.9990529 1.0015901 0.99915385 1.0008234 1.0006509 1.0024455 0.9994821
0.99850047 0.9991313 1.0002393 0.99876696 0.99991727 0.99939615 0.99977326 1.0011443
0.9998669 0.9981945 0.9996143 0.99966264 0.99896353 0.999207 1.0008706 0.9990124
0.9984948 0.9998874 0.99913126 0.9983994 0.99889433 1.0001415 0.99865746 1.0008489
0.9982551 1.0007076 0.9992202 1.0015249 0.9997844 1.00304 1.000178 1.0002104
0.9990777 1.0006895 0.99957246 0.99950725 0.9995232 0.99857676 1.0000558 1.0002012
1.0011531 0.99977607 1.0011933 1.0003477 1.0009876 1.0002078 1.0010352 1.0011503
1.0015658 1.0002776 0.99971145 1.0005732 0.99841833 1.0014908 0.9996081 1.0007876
0.99950284 0.9998153 0.9988612 1.0012107 0.99915546 1.0005761 1.000069 1.0009335
00000000: 309f 7f3f 030b 803f cb0f 803f 7ff8 7f3f
00000010: 572c 803f d89a 7f3f bfd3 7f3f 2af1 7f3f
00000020: efd9 7f3f 5d14 803f b1e4 7f3f 4de0 7f3f
00000030: a2c9 7f3f 2bae 7f3f 051c 803f fdfb 7f3f
00000040: 2d11 803f c6ef 7f3f 6b22 7f3f 288c 7f3f
00000050: 1de0 7f3f e2a5 7f3f f5e5 7f3f 31d9 7f3f
00000060: 56d7 7f3f abb8 7f3f c4ad 7f3f 4e03 803f
00000070: ae22 803f 12dd 7f3f 68e9 7f3f afdc 7f3f
00000080: 0805 803f 2d25 803f 04a4 7f3f 3e2a 803f
00000090: 121c 803f 683a 803f dffd 7f3f d407 803f
000000a0: a3c3 7f3f 0392 7f3f 4fd9 7f3f e518 803f
000000b0: fccd 7f3f 1111 803f 1914 803f d6b6 7f3f
000000c0: e31f 803f c1ad 7f3f bd2a 803f c156 803f
000000d0: e64a 803f 3317 803f f524 803f 82c6 7f3f
000000e0: 9bb5 7f3f b34a 803f 701e 803f 72ab 7f3f
000000f0: efeb 7f3f 982e 803f 710b 803f 9bcd 7f3f
00000100: 571d 803f f512 803f 4fd3 7f3f b033 803f
00000110: e9ff 7f3f b0b2 7f3f 8d26 803f 29b4 7f3f
00000120: 8ce4 7f3f 63a7 7f3f f9ca 7f3f 1f0a 803f
00000130: 97ef 7f3f ff61 7f3f 8ec1 7f3f 0118 803f
00000140: bfea 7f3f 8b11 803f c4e8 7f3f 70f5 7f3f
00000150: 8237 803f b7c3 7f3f acc1 7f3f 2918 803f
00000160: 3edd 7f3f 9606 803f 02b3 7f3f c1c3 7f3f
00000170: b5bd 7f3f 9bf9 7f3f 1219 803f 9f1c 803f
00000180: 8d1f 803f 661b 803f 8eae 7f3f 13fe 7f3f
00000190: 6ced 7f3f 8dea 7f3f 8510 803f a7f4 7f3f
000001a0: d1c3 7f3f 80c7 7f3f 86c8 7f3f 8a0b 803f
000001b0: 64f2 7f3f 86d9 7f3f 3c16 803f b5f3 7f3f
000001c0: bb2c 803f fc25 803f 4721 803f 1a29 803f
000001d0: 53ea 7f3f 7bf1 7f3f 1f01 803f cda4 7f3f
000001e0: 22fb 7f3f ba14 803f 5c0a 803f 4830 803f
000001f0: 2116 803f f3e0 7f3f 87f6 7f3f 6102 803f
00000200: 1be4 7f3f eec1 7f3f 1b34 803f 8cc8 7f3f
00000210: fb1a 803f 5415 803f 2250 803f 0fde 7f3f
00000220: ba9d 7f3f 12c7 7f3f d707 803f 31af 7f3f
00000230: 94fa 7f3f 6dd8 7f3f 24f1 7f3f 7f25 803f
00000240: 47f7 7f3f ad89 7f3f b9e6 7f3f e4e9 7f3f
00000250: 13bc 7f3f 08cc 7f3f 871c 803f 47bf 7f3f
00000260: 5b9d 7f3f 9ff8 7f3f 11c7 7f3f 1a97 7f3f
00000270: 8ab7 7f3f a304 803f 04a8 7f3f d11b 803f
00000280: a58d 7f3f 3017 803f e5cc 7f3f f831 803f
00000290: dff1 7f3f 9d63 803f d505 803f e506 803f
000002a0: 8ec3 7f3f 9816 803f fbe3 7f3f b5df 7f3f
000002b0: c1e0 7f3f baa2 7f3f d401 803f 9806 803f
000002c0: c925 803f 53f1 7f3f 1a27 803f 650b 803f
000002d0: 5d20 803f cf06 803f ec21 803f b125 803f
000002e0: 4f33 803f 1909 803f 17ed 7f3f c812 803f
000002f0: 5898 7f3f da30 803f 51e6 7f3f cf19 803f
00000300: 6bdf 7f3f e5f3 7f3f 5eb5 7f3f ac27 803f
00000310: a7c8 7f3f e112 803f 4302 803f 971e 803f

main.2.weight f4 [200, 200]
0.041822065 0.056051012 0.047971547 -0.023558667 0.031625643 0.0077920626 0.10587495 -0.1972988
0.049597528 0.0075284904 0.050863445 -0.011287169 0.10908164 0.14749879 -0.14331864 -0.17385375
-0.108357996 0.14897321 -0.14567633 0.008978632 -0.02215105 -0.0592755 0.05448924 -0.09829397
0.064738415 -0.27750003 0.068761095 -0.13146998 0.19108005 0.030192202 -0.06930387 0.109076016
0.037007816 0.14966385 -0.2318153 0.030704442 -0.07638977 0.06770575 0.01355039 -0.027870242
-0.08371222 0.07647278 -0.020645443 -0.046469428 -0.06949711 -0.057418223 0.04170929 0.07862234
-0.08103059 0.008172838 0.14033163 0.0019216468 0.102853864 -0.016359124 -0.019449538 0.122738324
0.07611731 -0.14610663 -0.10893087 -0.003200227 0.015435195 -0.09304603 0.042481694 -0.01865724
-0.10615577 -0.1352123 -0.10474855 -0.09278556 0.12606598 -0.033342246 0.15418454 0.019160718
0.053447142 -0.038608115 0.05000891 0.04062114 -0.19879997 0.030385934 -0.05756115 0.077743895
-0.0841269 0.22416969 -0.078989916 0.010738248 -0.0841041 0.025119176 -0.044258717 0.11843695
0.0724031 0.14791983 0.05089775 0.0022892235 0.028349364 -0.13201007 -0.105969295 0.08359416
0.08354064 0.017082926 0.12261388 -0.08567418 0.025841312 -0.10970757 0.07031179 -0.031730313
-0.13145076 -0.09278833 0.17512819 -0.018141186 0.20249203 0.019776009 -0.06558266 0.013033915
-0.21884112 0.07422435 0.076847345 0.054970525 -0.016792696 0.020231724 0.015724324 -0.09689775
-0.015078739 0.13961358 -0.014124306 0.07123886 0.097901754 -0.084973805 0.13408387 -0.027052555
-0.009120077 -0.19308934 0.15936211 -0.088949166 -0.1352876 0.024553917 -0.06427621 -0.08023492
-0.017161217 0.018922891 0.061906923 -0.11691327 -0.22452469 -0.10190374 -0.0474217 -0.001728146
0.052048817 -0.034329772 -0.0013511475 -0.11234421 0.03337529 -0.047911275 0.08594896 0.10454006
0.0136240665 0.014299836 0.091964796 0.038070824 0.10166061 0.22679435 0.20489605 -0.040488407
-0.06690703 0.11448204 -0.0013292781 0.0459557 0.007010029 0.059268024 0.089499325 -0.105034605
-0.07313712 -0.02786918 -0.008121646 -0.18473607 0.17511056 -0.06391123 -0.14146248 -0.0036005634
0.108854294 0.05589197 -0.09690243 0.010486789 0.05789685 -0.20671305 -0.043797426 0.05580292
-0.08755058 -0.027589584 0.080622226 -0.1686752 -0.08985106 -0.09394928 0.0077345753 -0.04964299
0.06999871 -0.04239505 -0.089630246 -0.07228976 -0.058474895 -0.10632076 0.049271088 0.041240823
0.029499205 0.20004994 -0.15006135 -0.11618347 -0.06890928 0.070667826 -0.005386609 0.11104148
-0.22403146 -0.067292474 0.08694124 -0.034408417 -0.040518433 0.0013441173 0.073880106 0.057574566
-0.09918091 0.07394662 -0.10126071 0.0012774538 -0.16591096 0.0915562 0.0032525195 0.0043554436
0.062189363 0.0515816 -0.14718348 -0.11115757 -0.0118437065 0.06728912 0.023585547 -0.074183725
-0.17287233 0.09919087 -0.09813621 0.07855187 0.096855685 -0.051201116 -0.121680975 0.05790809
-0.061291248 0.04282159 0.012901363 0.19698949 -0.22848593 0.04584396 0.008918599 -0.10850675
0.26954386 0.07303826 -0.18032834 -0.08217614 -0.09167093 -0.12216507 -0.09648319 -0.08971844
00000000: 9d4d 2b3d bf95 653d d07d 443d 1bfe c0bc
00000010: e489 013d 8f54 ff3b f7d4 d83d b208 4abe
00000020: c726 4b3d 8eb1 f63b 3056 503d d1ed 38bc
00000030: 3266 df3d ec09 173e 1fc2 12be b806 32be
00000040: ccea ddbd 6f8c 183e 2d2c 15be 1d1b 133c
00000050: 1e76 b5bc deca 72bd 1c30 5f3d 594e c9bd
00000060: 9395 843d 7c14 8ebe 9ed2 8c3d 11a0 06be
00000070: 7daa 433e a355 f73c 30ef 8dbd 3f63 df3d
00000080: 8295 173d 7b41 193e fd60 6dbe e287 fb3c
00000090: 3d72 9cbd 50a9 8a3d 7402 5e3c 2250 e4bc
000000a0: 5071 abbd c39d 9c3d a220 a9bc ba56 3ebd
000000b0: 8054 8ebd 5f2f 6bbd 5cd7 2a3d c004 a13d
000000c0: 5ef3 a5bd 5ee7 053c 18b3 0f3e c4df fb3a
000000d0: 0ca5 d23d 9203 86bc a354 9fbc 3b5e fb3d
000000e0: 64e3 9b3d fa9c 15be 2617 dfbd e6ba 51bb
000000f0: e6e3 7c3c eb8e bebd 4901 2e3d 11d7 98bc
00000100: 3268 d9bd 1875 0abe 6886 d6bd 5b06 bebd
00000110: 7117 013e e191 08bd 8de2 1d3e f0f6 9c3c
00000120: 64eb 5a3d 8b23 1ebd 25d6 4c3d 5a62 263d
00000130: 3892 4bbe eceb f83c 3ec5 6bbd 3138 9f3d
00000140: b94a acbd bd8c 653e 77c5 a1bd 7aef 2f3c
00000150: c53e acbd bbc6 cd3c a148 35bd 128f f23d
00000160: 1448 943d 4c78 173e 297a 503d cc06 163b
00000170: ed3c e83c a62d 07be 6e06 d9bd 6a33 ab3d
00000180: 5b17 ab3d 7ef1 8b3c fc1c fb3d f275 afbd
00000190: 29b1 d33c 5dae e0bd a1ff 8f3d a5f7 01bd
000001a0: 079b 06be cf07 bebd ce54 333e d39c 94bc
000001b0: 125a 4f3e 4c01 a23c 3450 86bd 348c 553c
000001c0: e317 60be f002 983d 2462 9d3d c628 613d
000001d0: d690 89bc 00bd a53c 4cd0 803c 5472 c6bd
000001e0: d10c 77bc ddf6 0e3e a269 67bc aee5 913d
000001f0: b780 c83d bf06 aebd 484d 093e 529d ddbc
00000200: 606c 15bc 36b9 45be d22f 233e fb2a b6bd
00000210: d588 0abe 4c25 c93c 3fa3 83bd 3552 a4bd
00000220: ae95 8cbc 2e04 9b3c 1d92 7d3d 3970 efbd
00000230: cde9 65be e8b2 d0bd 423d 42bd f582 e2ba
00000240: 2431 553d 609d 0cbd fd18 b1ba b914 e6bd
00000250: 87b4 083d 9d3e 44bd 0206 b03d 1919 d63d
00000260: 7a37 5f3c dc49 6a3c 0a58 bc3d 27f0 1b3d
00000270: 7033 d03d c73c 683e 45d0 513e 2cd7 25bd
00000280: 8e06 89bd 8f75 ea3d 2c3b aeba 0b3c 3c3d
00000290: 63b4 e53b 07c3 723d 6c4b b73d 621c d7bd
000002a0: eac8 95bd e84d e4bc a710 05bc 742b 3dbe
000002b0: 2f50 333e e4e3 82bd 8adb 10be 6ef7 6bbb
000002c0: 00ef de3d faee 643d c874 c6bd c8d0 2b3c
000002d0: 3f25 6d3d 96ac 53be ee64 33bd 9a91 643d
000002e0: b84d b3bd 8d03 e2bc 441d a53d 31b9 2cbe
000002f0: d503 b8bd 7b68 c0bd 5272 fd3b 7356 4bbd
00000300: 7c5b 8f3d 6fa6 2dbd 1090 b7bd a70c 94bd
00000310: 5f83 6fbd b3be d9bd 7bd0 493d 23ec 283d
00000320: 51a8 f13c e4d9 4c3e afa9 19be 99f1 edbd
00000330: 4f20 8dbd 4bba 903d 2782 b0bb b769 e33d
00000340: 8168 65be a3d0 89bd 400e b23d d7ef 0cbd
00000350: a8f6 25bd 182d b03a 744e 973d 4fd3 6b3d
00000360: 5c1f cbbd 5371 973d c661 cfbd 3d70 a73a
00000370: 90e4 29be d181 bb3d 3928 553b 1cb8 8e3b
00000380: 46ba 7e3d 3a47 533d 44b7 16be 94a6 e3bd
00000390: 1b0c 42bc e1ce 893d 7a36 c13c a3ed 97bd
000003a0: 7205 31be 9524 cb3d a3fb c8bd cedf a03d
000003b0: 465c c63d 43b8 51bd e033 f9bd 0931 6d3d
000003c0: 880c 7bbd b165 2f3d 3d60 533c 9db7 493e
000003d0: 37f8 69be e0c6 3b3d 511f 123c c938 debd
000003e0: a701 8a3e 1595 953d fea7 38be f74b a8bd
000003f0: f8bd bbbd ae31 fabd fb98 c5bd 4dbe b7bd

main.2.bias f4 [200]
0.9992708 0.9979751 1.000429 1.0002234 0.99839705 0.9997802 0.9986414 0.99998593
1.0000818 1.0000625 0.99988335 0.9998042 1.0014844 0.99908674 1.0007582 0.99963915
1.0025666 1.0009669 1.0007563 1.0013752 1.000269 1.0004857 0.9966303 0.9993692
0.9989356 1.0001967 0.9990506 0.99887985 0.99813944 1.0009699 0.99899465 1.0003028
1.0013405 0.99991876 0.99933636 0.9995901 0.9995283 1.0013889 1.0001218 1.0009772
1.0004646 0.99896705 0.9999862 0.99979705 0.99945295 0.99956596 0.99866486 0.9977087
1.0013216 1.0006028 1.0017463 1.0006758 0.99864614 1.0014035 0.99882674 1.0003372
0.9989519 1.0004022 1.0007282 1.000069 0.99883425 1.0004272 0.99889874 0.9993547
1.0012344 1.0014617 1.0006491 1.0003879 1.001093 0.9989954 0.99978983 1.0016252
1.0020311 0.9985348 1.000685 0.9990925 0.9994723 1.0014743 1.0000433 1.0010825
0.99946475 1.0006107 1.0004022 1.000327 1.0013248 1.0016323 0.99896425 1.0001153
0.99963677 0.99824667 1.0008521 0.999262 0.9994598 1.0009203 0.99987364 1.0004987
1.0003563 1.0003775 1.0006646 0.9976601 1.0004632 1.0008472 0.9992274 1.000789
0.99872494 0.99902576 1.0014621 0.9991833 0.99996895 1.001376 1.0008197 1.0004352
0.9998126 1.0000478 1.0009966 0.99970144 1.0000389 0.9977496 0.9982457 0.9988049
0.9995723 0.9992861 1.0007762 1.000487 1.000551 1.0001712 0.9999268 0.9988801
1.0012467 1.0018036 1.0013238 1.0008583 0.9994056 0.99906385 0.99968123 1.0013863
0.998387 1.000445 1.0001363 0.9992047 0.9989816 0.9986435 0.9987613 0.9989933
1.0015941 0.9992294 0.99959683 1.0009118 0.9987453 1.0001765 1.0000118 0.9976138
0.9989678 1.0012894 0.9997372 0.9983076 0.9993402 1.0007664 0.99788696 0.9997274
0.9991173 0.9983189 1.0003439 0.9999337 0.9993288 1.0002843 1.0003629 0.99901485
1.0001725 0.999072 0.9996491 0.99936014 0.9989857 1.0016787 1.0003757 1.0001696
1.0009422 0.9985274 0.9995624 0.9991553 0.9994759 0.99954957 1.000421 0.9991895
1.0001421 1.0011456 0.99818975 0.9993923 1.0012664 0.9990667 1.0003333 0.999721
1.0011648 1.0010765 1.0012379 1.0006626 1.0001801 1.0018736 0.9996562 0.99986374
00000000: 36d0 7f3f 4c7b 7f3f 0f0e 803f 5207 803f
00000010: f396 7f3f 98f1 7f3f f6a6 7f3f 14ff 7f3f
00000020: ae02 803f 0c02 803f 5bf8 7f3f 2bf3 7f3f
00000030: a430 803f 26c4 7f3f d818 803f 5ae8 7f3f
00000040: 1a54 803f af1f 803f c818 803f 102d 803f
00000050: d108 803f ea0f 803f 2a23 7f3f a9d6 7f3f
00000060: 3eba 7f3f 7206 803f c8c1 7f3f 97b6 7f3f
00000070: 1186 7f3f c81f 803f 1dbe 7f3f ec09 803f
00000080: ed2b 803f adfa 7f3f 82d4 7f3f 23e5 7f3f
00000090: 16e1 7f3f 832d 803f fe03 803f 0520 803f
000000a0: 390f 803f 4ebc 7f3f 18ff 7f3f b3f2 7f3f
000000b0: 26dc 7f3f 8ee3 7f3f 80a8 7f3f d669 7f3f
000000c0: 4e2b 803f c113 803f 3939 803f 2516 803f
000000d0: 46a7 7f3f fd2d 803f 1cb3 7f3f 0d0b 803f
000000e0: 50bb 7f3f 2e0d 803f dd17 803f 4302 803f
000000f0: 9ab3 7f3f 000e 803f d4b7 7f3f b6d5 7f3f
00000100: 7328 803f e62f 803f 4515 803f b60c 803f
00000110: d123 803f 2abe 7f3f 3af2 7f3f 4135 803f
00000120: 8e42 803f fa9f 7f3f 7216 803f 87c4 7f3f
00000130: 6bdd 7f3f 4f30 803f 6b01 803f 7923 803f
00000140: ecdc 7f3f 0314 803f 2e0d 803f b70a 803f
00000150: 692b 803f 7d35 803f 1fbc 7f3f c703 803f
00000160: 32e8 7f3f 188d 7f3f ec1b 803f a2cf 7f3f
00000170: 99dc 7f3f 281e 803f b8f7 7f3f 5710 803f
00000180: ad0b 803f 5f0c 803f c715 803f a766 7f3f
00000190: 2e0f 803f c31b 803f 5ecd 7f3f db19 803f
000001a0: 70ac 7f3f 27c0 7f3f e92f 803f 7aca 7f3f
000001b0: f7fd 7f3f 172d 803f dc1a 803f 430e 803f
000001c0: b8f3 7f3f 9101 803f a820 803f 6fec 7f3f
000001d0: 4601 803f 856c 7f3f 088d 7f3f aeb1 7f3f
000001e0: f8e3 7f3f 37d1 7f3f 6f19 803f f50f 803f
000001f0: 0e12 803f 9c05 803f 34fb 7f3f 9bb6 7f3f
00000200: da28 803f 1a3b 803f 612b 803f 201c 803f
00000210: 0cd9 7f3f a6c2 7f3f 1ceb 7f3f 6d2d 803f
00000220: 4a96 7f3f 950e 803f 7704 803f e1cb 7f3f
00000230: 42bd 7f3f 1aa7 7f3f d2ae 7f3f 06be 7f3f
00000240: 3c34 803f 7fcd 7f3f 94e5 7f3f e11d 803f
00000250: c6ad 7f3f c905 803f 6300 803f 9e63 7f3f
00000260: 5bbc 7f3f 402a 803f c7ee 7f3f 1691 7f3f
00000270: c2d4 7f3f 1d19 803f 8575 7f3f 23ee 7f3f
00000280: 27c6 7f3f d491 7f3f 450b 803f a8fb 7f3f
00000290: 03d4 7f3f 5109 803f e40b 803f 70bf 7f3f
000002a0: a705 803f 2fc3 7f3f 01e9 7f3f 11d6 7f3f
000002b0: 87bd 7f3f 0237 803f 500c 803f 8f05 803f
000002c0: e01e 803f 7e9f 7f3f 52e3 7f3f a4c8 7f3f
000002d0: a7dd 7f3f 7be2 7f3f cc0d 803f e2ca 7f3f
000002e0: a804 803f 8a25 803f 5d89 7f3f 2cd8 7f3f
000002f0: 7f29 803f d6c2 7f3f ec0a 803f b7ed 7f3f
00000300: 2b26 803f 4623 803f 9028 803f b615 803f
00000310: e705 803f 653d 803f 78e9 7f3f 12f7 7f3f

main.4.weight f4 [200, 200]
-0.019703906 -0.06418104 -0.027565766 0.112003274 -0.1752876 -0.016686084 0.03738151 -0.067542374
-0.0743905 -0.09331051 0.12660433 -0.0947493 0.02428994 0.13427565 0.1405272 0.046191942
0.048628107 0.018332511 -0.10429463 0.007782814 -0.03818116 0.20493351 0.16064423 0.21517642
0.20570374 -0.049545053 0.09195239 -0.1265094 0.06337282 -0.14780854 0.08518174 0.01150483
-0.10114035 0.22485514 -0.04871253 0.00050449214 0.0038106192 0.06416464 0.0294877 0.14965582
-0.102094896 -0.07323084 0.16582549 -0.06244139 -0.215431 0.0005149859 -0.052215695 0.023317706
0.03292456 -0.014301608 0.1346832 0.107739985 -0.014487374 -0.20726499 -0.033782467 -0.017356414
0.03799588 -0.09171714 -0.07841423 -0.023972979 -0.06183735 0.17298616 0.07177066 8.242027e-05
-0.046645943 -0.05965874 0.13330588 0.010456086 0.060963597 0.059582032 -0.08541958 -0.1263374
0.052005183 -0.010944581 -0.06543316 -0.037201505 -0.13781719 0.08745218 -0.015503708 -0.028469913
-0.1518617 0.049870472 -0.14498928 0.013533043 -0.006649443 -0.18273707 -0.04251056 0.20047744
0.09241666 -0.13470452 0.117909804 -0.09815848 0.13195346 -0.20966557 0.054178365 0.1321866
-0.20105533 -0.05691287 0.19305801 0.15824045 0.07002566 -0.20137604 0.011695963 -0.028857991
-0.10491241 -0.030070731 0.120227315 0.039922193 -0.046895508 -0.0028212427 0.26853058 -0.08283178
0.07602602 0.15434189 -0.03698285 0.088015854 -0.06891233 0.014813449 0.013258166 -0.025835948
0.007113262 -0.012698249 -0.017251544 -0.031280376 -0.050059237 0.21882118 0.110322505 0.050525803
-0.11493973 -0.0022619152 -0.13627921 0.02482704 0.026865803 -0.02972718 -0.04609985 -0.09221699
0.018450907 0.11365964 0.0842777 -0.011629579 -0.0008916175 0.10731089 -0.05548596 0.03768363
0.030723628 0.069094695 -0.0892948 -0.114446744 -0.04214555 0.04941401 0.0360635 -0.0561792
-0.052435085 0.015126177 -0.071331404 -0.084820405 0.036449816 -0.17053017 0.21768565 -0.07107833
-0.0320384 -0.05181145 -0.15406644 0.0037342103 -0.06078755 -0.011057685 0.14370869 -0.14896767
-0.13084224 0.13662249 -0.037160993 0.18136929 0.123220764 -0.044532225 -0.03220018 -0.0143730575
-0.039361402 -0.05476497 -0.19575636 0.13651581 -0.007931903 -0.1121795 -0.10314721 -0.056217074
-0.10281313 0.025795853 -0.0974921 -0.011711532 0.06404841 -0.048346244 0.18832538 0.10649077
-0.059180062 -0.13330944 -0.069754355 -0.101629905 -0.04814096 0.08712774 -0.041496307 -0.058682572
-0.04699568 -0.11012628 0.053743582 0.17437518 -0.012639221 -0.21684688 -0.017075907 0.13352697
0.32341337 -0.0613685 -0.022607654 -0.025885489 -0.08989104 0.07860612 -0.19002338 0.066211075
-0.16844632 0.01967505 0.004904504 0.06454509 -0.088443615 -0.08689243 -0.0775331 -0.024073027
0.004452634 0.16280115 -0.0052062995 0.12461832 0.012805157 0.07577041 0.031743415 -0.18502901
0.045225114 -0.15486297 0.012989673 0.03988168 0.0013460132 0.12287064 -0.11793252 0.14567418
-0.045082305 -0.25051516 -0.014543263 -0.066827945 0.16305046 0.009187957 0.048171107 -0.029718785
-0.18038361 -0.037229717 0.028174218 -0.14808764 -0.029736808 -0.15702784 -0.030451596 0.09039677
00000000: 166a a1bc 5971 83bd 9ad1 e1bc f961 e53d
00000010: 987e 33be 41b1 88bc 5b1d 193d a853 8abd
00000020: 0c5a 98bd 9519 bfbd 91a4 013e ec0b c2bd
00000030: b2fb c63c 8e7f 093e 5de6 0f3e c333 3d3d
00000040: 442e 473d 102e 963c 6c98 d5bd fa06 ff3b
00000050: d963 1cbd 17da 513e ec7f 243e 3557 5c3e
00000060: 00a4 523e c1ef 4abd 8951 bc3d ae8b 01be
00000070: 9cc9 813d 1f5b 17be c473 ae3d c17e 3c3c
00000080: ac22 cfbd 6d40 663e ca86 47bd e53f 043a
00000090: 95bb 793b c068 833d 3090 f13c 603f 193e
000000a0: 2117 d1bd 0dfa 95bd 28ce 293e 8bc2 7fbd
000000b0: f299 5cbe 1e00 073a 20e0 55bd c604 bf3c
000000c0: e7db 063d 4b51 6abc 65ea 093e c8a6 dc3d
000000d0: 735c 6dbc 463d 54be 7c5f 0abd 0a2f 8ebc
000000e0: 91a1 1b3d 32d6 bbbd a497 a0bd fb62 c4bc
000000f0: 2949 7dbd 4923 313e 7ffc 923d 0cd9 ac38
00000100: d10f 3fbd b95c 74bd 5681 083e 0150 2b3c
00000110: f7b4 793d 4a0c 743d 76f0 aebd 975e 01be
00000120: 6303 553d e650 33bc d201 86bd 9b60 18bd
00000130: f31f 0dbe 211a b33d 4403 7ebc bc39 e9bc
00000140: a281 1bbe fb44 4c3d 1278 14be b2b9 5d3c
00000150: 92e3 d9bb 6d1f 3bbe 8e1f 2ebd f549 4d3e
00000160: f244 bd3d fbef 09be b27a f13d 5007 c9bd
00000170: cf1e 073e 92b2 56be 22ea 5d3d ed5b 073e
00000180: 73e1 4dbe 781d 69bd 00b1 453e c909 223e
00000190: 9d69 8f3d 8535 4ebe 6da0 3f3c 9867 ecbc
000001a0: 51dc d6bd e556 f6bc bd39 f63d 7485 233d
000001b0: 8115 40bd 99e4 38bb d77c 893e b5a3 a9bd
000001c0: 88b3 9b3d cd0b 1e3e 547b 17bd a841 b43d
000001d0: e821 8dbd 1cb4 723c c738 593c e9a5 d3bc
000001e0: 5e16 e93b 510c 50bc 1c53 8dbc da1f 00bd
000001f0: ea0a 4dbd a912 603e c4f0 e13d 25f4 4e3d
00000200: 8565 ebbd a43c 14bb c78c 0bbe 1462 cb3c
00000210: ac15 dc3c 6a86 f3bc 32d3 3cbd 43dc bcbd
00000220: 5b26 973c 63c6 e83d c999 ac3d fd89 3ebc
00000230: 70bb 69ba d0c5 db3d 3f45 63bd 265a 1a3d
00000240: 1eb0 fb3c 8581 8d3d 31e0 b6bd 0e63 eabd
00000250: d0a0 2cbd 5866 4a3d 52b7 133d 291c 66bd
00000260: 2cc6 56bd c9d3 773c 3316 92bd 52b6 adbd
00000270: 674c 153d 769f 2ebe fde8 5e3e 8491 91bd
00000280: b33a 03bd 3e38 54bd 98c3 1dbe a7b9 743b
00000290: 5efc 78bd 4b2b 35bc 5f28 133e fb8a 18be
000002a0: 82fb 05be c4e6 0b3e 2036 18bd dfb8 393e
000002b0: 2b5b fc3d 6c67 36bd 56e4 03bd f97c 6bbc
000002c0: 6c39 21bd 3c51 60bd 5b74 48be cdca 0b3e
000002d0: d0f4 01bc 5ebe e5bd d83e d3bd e043 66bd
000002e0: b18f d2bd d351 d33c f0a9 c7bd bae1 3fbc
000002f0: d02b 833d b606 46bd 5ed8 403e d517 da3d
00000300: cb66 72bd 4582 08be 5fdb 8ebd 5723 d0bd
00000310: 752f 45bd 0770 b23d 08f8 29bd 235d 70bd
00000320: 8b7e 40bd e389 e1bd 3b22 5c3d 688f 323e
00000330: bc14 4fbc 1c0d 5ebe c6e2 8bbc 4bbb 083e
00000340: 7096 a53e 895d 7bbd b033 b9bc ce0d d4bc
00000350: cb18 b8bd 3ffc a03d 7d95 42be ac99 873d
00000360: 317d 2cbe 922d a13c f6b5 a03b 3730 843d
00000370: ed21 b5bd a9f4 b1bd adc9 9ebd cc34 c5bc
00000380: 67e7 913b 58b5 263e 9b99 aabb e437 ff3d
00000390: b9cc 513c 842d 9b3d 6205 023d 3f78 3dbe
000003a0: f83d 393d 6694 1ebe a3d2 543c f95a 233d
000003b0: b56c b03a 9aa3 fb3d 9b86 f1bd 9d2b 153e
000003c0: 39a8 38bd 8643 80be de46 6ebc 17dd 88bd
000003d0: b3f6 263e 1689 163c 114f 453d cf74 f3bc
000003e0: 7bb6 38be 307e 18bd 9ecd e63c 49a4 17be
000003f0: 9b9a f3bc e8cb 20be a075 f9bc f121 b93d

main.4.bias f4 [200]
0.99798656 1.0001626 0.99905795 1.0007573 0.99944544 0.9983295 0.99921954 0.99968654
1.0014728 1.0017172 0.99991584 1.0012524 1.000577 1.0001189 0.99880123 0.99918115
1.0001467 1.001033 0.99875176 0.9979358 1.0000073 0.99931043 1.0004646 0.9988251
0.9989367 0.99904513 1.0004501 1.0006762 0.99910444 1.0001392 0.99881446 0.99934006
1.0007313 0.9992584 1.000344 1.0001137 1.000625 1.0000772 0.99919665 0.99848163
1.0016184 0.9993496 0.99918395 1.0009886 1.0009305 0.9993338 0.9993041 1.000566
1.0005243 0.9992008 0.998623 1.0014421 0.9997772 1.0002192 1.0001956 1.00035
1.0018864 0.9989845 0.99846435 0.9987196 1.0002991 0.9992721 1.0011867 1.0005428
1.0007186 0.99961674 1.0018213 1.001521 1.0009947 1.001136 1.0004987 1.0010717
0.9991179 0.9988177 0.9977699 1.0007999 0.99996096 0.9986256 1.0008357 1.0008454
0.9998567 1.0029632 0.99914956 0.998997 1.0003988 1.0015452 1.0013093 0.99823934
0.9984692 0.99970394 0.99977034 0.99877256 0.9985685 1.001307 1.0006584 0.99904317
1.0005745 1.0000556 0.99896836 0.99847776 0.99935526 0.9998463 1.0003647 0.9990392
1.0013951 1.0006232 1.0008268 1.0002066 0.9985979 0.99887455 0.99907637 0.99966466
0.99821365 1.00065 1.0014485 1.0003836 1.0007477 0.9994616 0.99865454 0.99890745
1.0002081 1.0010836 1.000048 0.9994014 1.0002996 0.99970007 1.0011047 0.99952924
0.99918234 1.001166 0.9993598 1.0005661 0.996907 0.999051 1.0017732 0.99882466
0.9990798 0.9987081 1.0013508 1.0010736 1.0003831 1.000376 0.998925 0.9984449
1.0002029 1.0009378 0.99966246 1.0011612 1.0010241 0.9987417 1.0003058 0.99935406
0.9990305 0.99982125 1.0007732 1.0001494 0.9993146 1.0007116 1.0007236 1.0010054
0.99900573 0.99925166 1.0009801 1.0003937 0.99912703 0.9983249 1.0004634 1.0009067
1.003076 0.9998673 0.99875164 0.99997 1.0007515 0.9985852 0.99903226 0.9998282
0.999768 1.0034168 1.0005345 1.0006143 0.9994416 0.99949753 0.99953586 1.0002213
0.99918187 1.0006564 1.0012306 0.999543 1.0005678 0.99913245 1.000952 1.000623
0.9995822 0.9983664 0.99955434 1.0007651 1.0007385 1.0012597 0.9986576 1.0016005
00000000: 0c7c 7f3f 5405 803f 43c2 7f3f d118 803f
00000010: a8db 7f3f 8692 7f3f dacc 7f3f 75eb 7f3f
00000020: 4330 803f 4538 803f 7cfa 7f3f 0a29 803f
00000030: e812 803f e503 803f 70b1 7f3f 56ca 7f3f
00000040: cf04 803f d921 803f 32ae 7f3f b878 7f3f
00000050: 3d00 803f cfd2 7f3f 390f 803f 00b3 7f3f
00000060: 51ba 7f3f 6cc1 7f3f c00e 803f 2816 803f
00000070: 4fc5 7f3f 9004 803f 4eb2 7f3f c0d4 7f3f
00000080: f717 803f 66cf 7f3f 460b 803f ba03 803f
00000090: 7b14 803f 8802 803f 5acb 7f3f 7e9c 7f3f
000000a0: 0835 803f 60d5 7f3f 85ca 7f3f 6520 803f
000000b0: 7e1e 803f 57d4 7f3f 65d2 7f3f 8c12 803f
000000c0: 2e11 803f a0cb 7f3f c2a5 7f3f 412f 803f
000000d0: 66f1 7f3f 2f07 803f 6906 803f 780b 803f
000000e0: d03d 803f 73bd 7f3f 5c9b 7f3f 16ac 7f3f
000000f0: cd09 803f 4cd0 7f3f e326 803f c911 803f
00000100: 8c17 803f e2e6 7f3f ae3b 803f d731 803f
00000110: 9820 803f 3925 803f 5710 803f 1e23 803f
00000120: 31c6 7f3f 84b2 7f3f d96d 7f3f 361a 803f
00000130: 71fd 7f3f eda5 7f3f 621b 803f b41b 803f
00000140: 9cf6 7f3f 1961 803f 44c8 7f3f 44be 7f3f
00000150: 110d 803f a232 803f e72a 803f 9d8c 7f3f
00000160: ad9b 7f3f 99ec 7f3f f3f0 7f3f 8faf 7f3f
00000170: 2fa2 7f3f d42a 803f 9315 803f 4bc1 7f3f
00000180: d312 803f d201 803f 64bc 7f3f 3d9c 7f3f
00000190: bfd5 7f3f edf5 7f3f f30b 803f 08c1 7f3f
000001a0: b72d 803f 6c14 803f 181b 803f c506 803f
000001b0: 1da4 7f3f 3eb6 7f3f 78c3 7f3f 06ea 7f3f
000001c0: ee8a 7f3f 4d15 803f 772f 803f 920c 803f
000001d0: 8018 803f b7dc 7f3f d3a7 7f3f 66b8 7f3f
000001e0: d206 803f 8223 803f 9301 803f c5d8 7f3f
000001f0: d109 803f 58ec 7f3f 3324 803f 26e1 7f3f
00000200: 6aca 7f3f 3526 803f 0bd6 7f3f 8d12 803f
00000210: 4c35 7f3f cec1 7f3f 1b3a 803f f9b2 7f3f
00000220: b2c3 7f3f 56ab 7f3f 432c 803f 2e23 803f
00000230: 8e0c 803f 520c 803f 8cb9 7f3f 169a 7f3f
00000240: a606 803f bb1e 803f e1e9 7f3f 0d26 803f
00000250: 8f21 803f 89ad 7f3f 050a 803f abd5 7f3f
00000260: 76c0 7f3f 49f4 7f3f 5619 803f e504 803f
00000270: 15d3 7f3f 5117 803f b617 803f f220 803f
00000280: d7be 7f3f f5ce 7f3f 1e20 803f e70c 803f
00000290: cac6 7f3f 3892 7f3f 2f0f 803f b61d 803f
000002a0: cb64 803f 4ef7 7f3f 30ae 7f3f 09fe 7f3f
000002b0: a018 803f 48a3 7f3f 94c0 7f3f bef4 7f3f
000002c0: ccf0 7f3f f66f 803f 8411 803f 2114 803f
000002d0: 68db 7f3f 12df 7f3f 95e1 7f3f 4007 803f
000002e0: 62ca 7f3f 8215 803f 5328 803f 0de2 7f3f
000002f0: 9b12 803f 25c7 7f3f 321f 803f 6a14 803f
00000300: 9ee4 7f3f f194 7f3f cbe2 7f3f 1219 803f
00000310: 3318 803f 4729 803f 06a8 7f3f 7234 803f

main.6.weight f4 [200, 200]
0.083744235 -0.07858955 0.034227714 0.0030512612 -0.060911622 0.014320104 -0.11071832 0.052949537
-0.065731846 -0.1684485 -0.16295187 -0.045047127 -0.10476135 -0.005782688 -0.010684715 0.17278948
-0.046445202 -0.037290093 -0.18466462 0.15948272 0.14549713 -0.038867902 0.07085493 0.08300663
-0.16715719 0.025782255 -0.14364901 0.10264867 -0.16906463 0.10450857 -0.035933316 -0.124389485
-0.15461116 0.097657524 -0.11838506 -0.09105272 0.032751475 -0.00041251382 -0.006041956 -0.13028708
-0.058097046 0.017797954 0.22763124 0.14539331 0.0347871 0.09989364 0.039902292 0.1605318
-0.03006145 -0.013777471 0.12312818 -0.096289136 -0.055630032 -0.082462184 0.1334318 0.03981703
-0.037056416 -0.026035994 0.05348413 -0.1968542 0.031242933 -0.052449174 0.03758577 -0.013810946
0.023994278 -0.03206263 -0.08486325 -0.22171576 -0.119968034 -0.14787526 0.20226635 -0.06824383
0.10544522 0.0105624115 0.09097584 0.026064515 0.29080394 -0.018532816 -0.1950724 -0.17050274
-0.012300542 -0.037840348 0.12827681 -0.047878534 -0.09202717 -0.09297145 -0.061618056 0.08674803
0.03816005 -0.08312482 0.068704754 0.048502427 0.13713966 -0.03820091 0.11346789 0.1777119
-0.13476856 0.031909198 -0.07830232 -0.108867474 -0.04115551 0.13984095 -0.011281429 0.020396883
-0.060474478 -0.21969146 -0.05004764 0.0461098 -0.06321519 -0.032045804 0.06574419 0.09359833
0.17397816 -0.1227359 0.19394979 0.009923002 0.033463217 0.3401935 0.033730138 0.11192533
0.14495318 -0.105053 0.26278925 -0.062083315 0.11083991 0.004029979 -0.06711459 -0.074311316
0.08773847 0.14459576 -0.19206458 -0.12547913 0.21581157 -0.017184041 -0.04435451 -0.07334267
-0.021027127 0.118107304 -0.15224598 0.057074822 0.19809422 -0.038204867 0.02855025 0.072744
-0.098408215 -0.010013929 -0.08377988 -0.11290839 -0.1444327 0.068648845 0.024504567 -0.16827825
-0.033313826 -0.17785196 -0.07670827 -0.11966646 0.069801666 -0.16343075 0.011074562 -0.05099446
0.015086548 0.045088097 -0.12275973 -0.0761068 0.06617117 0.02164343 -0.035414234 0.028187344
-0.008595766 0.19496481 -0.041222278 0.037707623 0.079796575 -0.15429068 -0.23025686 0.07797664
-0.08322548 0.0929706 0.16268525 -0.008399042 -0.33957773 0.024666926 0.084459126 0.10686871
0.012774577 -0.04537289 -0.10784089 -0.12763514 -0.04827533 -0.023556417 0.057662953 0.075115144
-0.06632085 0.2547624 0.04458281 -0.06507848 -0.01642877 0.042182803 0.1637682 -0.1687609
0.018513516 -0.007920934 0.07850977 -0.068550475 0.16997667 -0.017791761 -0.061635192 0.11487246
0.06599246 -0.014636537 0.00411172 0.012510325 0.12901324 -0.020215312 0.025453027 -0.026327793
0.07566924 -0.049927853 0.026757034 -0.09123801 -0.17257714 -0.08342892 0.028807903 -0.18863651
-0.015090053 -0.094011836 -0.0019179231 0.0006548138 -0.042860974 -0.022809077 0.041878548 0.021272345
-0.14891617 -0.052947395 -0.0014451648 0.0745066 -0.029044706 0.026006712 0.09297995 0.053117428
0.034619093 0.07532277 -0.14404419 -0.010357391 0.015491801 -0.1207695 0.06547579 -0.14503174
-0.05911367 0.11822393 0.18523446 -0.063796245 0.05394949 -0.035120443 0.005751823 0.074230015
00000000: 1982 ab3d 8ff3 a0bd 5c32 0c3d abf7 473b
00000010: 777e 79bd df9e 6a3c 49c0 e2bd 9de1 583d
00000020: 6b9e 86bd c37d 2cbe dbdc 26be 5683 38bd
00000030: 1e8d d6bd b47c bdbb f10e 2fbc baef 303e
00000040: 533d 3ebd 7fbd 18bd b918 3dbe 704f 233e
00000050: 33fd 143e f333 1fbd 641c 913d 61ff a93d
00000060: 412b 2bbe 4f35 d33c ba18 13be 7739 d23d
00000070: 471f 2dbe 9708 d63d d02e 13bd eabf febd
00000080: 6352 1ebe ab00 c83d de73 f2bd d979 babd
00000090: 6926 063d ab46 d8b9 9afb c5bb fa69 05be
000000a0: 2bf7 6dbd 04cd 913c 2a18 693e fce1 143e
000000b0: eb7c 0e3d 0995 cc3d 9670 233d 7362 243e
000000c0: 6e43 f6bc e7ba 61bc a12a fc3d 3d33 c5bd
000000d0: 51dc 63bd efe1 a8bd 59a2 083e 2f17 233d
000000e0: 78c8 17bd 7049 d5bc 2d12 5b3d 2694 49be
000000f0: 2ef1 ff3c f2d4 56bd 89f3 193d 4e47 62bc
00000100: a68f c43c 1b54 03bd c9cc adbd 7509 63be
00000110: cdb1 f5bd 9d6c 17be e91e 4f3e 6cc3 8bbd
00000120: aaf3 d73d f70d 2d3c 8b51 ba3d 4085 d53c
00000130: 41e4 943e 22d2 97bc 0fc1 47be 4598 2ebe
00000140: 3688 49bc 7bfe 1abd ff5a 033e 481c 44bd
00000150: be78 bcbd d167 bebd 3763 7cbd f3a8 b13d
00000160: b64d 1c3d 583d aabd 14b5 8c3d 7baa 463d
00000170: 576e 0c3e 8f78 1cbd da61 e83d 1cfa 353e
00000180: c500 0abe 38b3 023d f75c a0bd e9f5 debd
00000190: ae92 28bd 7732 0f3e bed5 38bc 5d17 a73c
000001a0: 16b4 77bd ccf6 60be c1fe 4cbd a1dd 3c3d
000001b0: f776 81bd 7642 03bd e4a4 863d 7bb0 bf3d
000001c0: 5527 323e f65c fbbd c69a 463e 1694 223c
000001d0: ba10 093d d82d ae3e 9d28 0a3d 1b39 e53d
000001e0: 9b6e 143e 0726 d7bd 508c 863e 134b 7ebd
000001f0: 0900 e33d ea0d 843b 6073 89bd 8830 98bd
00000200: 3ab0 b33d e910 143e 94ac 44be 9a7d 00be
00000210: b5fd 5c3e 8cc5 8cbc 13ad 35bd af34 96bd
00000220: 1541 acbc 3ee2 f13d 5fe6 1bbe 4ac7 693d
00000230: 36d9 4a3e b57c 1cbd 37e2 e93c cefa 943d
00000240: 3f8a c9bd 7611 24bc c994 abbd 843c e7bd
00000250: 2ae6 13be c497 8c3d cdbd c83c 2251 2cbe
00000260: 1474 08bd d31e 36be 3a19 9dbd b013 f5bd
00000270: 2df4 8e3d 645a 27be 1472 353c 91df 50bd
00000280: 922d 773c 4cae 383d 7469 fbbd e2dd 9bbd
00000290: c084 873d 904d b13c 840e 11bd 25e9 e63c
000002a0: 41d5 0cbc dba4 473e b1d8 28bd 4f73 1a3d
000002b0: 636c a33d 60fe 1dbe 74c8 6bbe 37b2 9f3d
000002c0: 1f72 aabd 5f67 be3d f696 263e 239c 09bc
000002d0: 22dd adbe 4b12 ca3c e8f8 ac3d fbdd da3d
000002e0: 764c 513c ecd8 39bd afdb dcbd c9b2 02be
000002f0: 5abc 45bd 63f9 c0bc fd2f 6c3d f8d5 993d
00000300: 3ad3 87bd 3870 823e 779c 363d de47 85bd
00000310: a195 86bc e0c7 2c3d dab2 273e a8cf 2cbe
00000320: a8a9 973c cec6 01bc bbc9 a03d 3164 8cbd
00000330: 5d0e 2e3e 07c0 91bc 2f75 7cbd 4142 eb3d
00000340: 0e27 873d 16ce 6fbc 9bbb 863b 1bf8 4c3c
00000350: 0c1c 043e 959a a5bc de82 d03c 62ad d7bc
00000360: 79f8 9a3d 2681 4cbd 9131 db3c feda babd
00000370: 10b8 30be c8dc aabd 8dfe eb3c ee29 41be
00000380: 453c 77bc 4789 c0bd d262 fbba cfa7 2b3a
00000390: fd8e 2fbd 1ada babc d788 2b3d 5743 ae3c
000003a0: 7b7d 18be 5edf 58bd af6b bdba eb96 983d
000003b0: 2aef edbc 070c d53c 466c be3d a991 593d
000003c0: c0cc 0d3d d342 9a3d 5280 13be 0cb2 29bc
000003d0: 53d1 7d3c 0056 f7bd 2c18 863d 3383 14be
000003e0: 2d21 72bd 631f f23d 1aae 3d3e 9ba7 82bd
000003f0: 24fa 5c3d 74da 0fbd ca79 bc3b e805 983d

main.6.bias f4 [200]
0.99828666 1.000744 0.99896467 0.9990112 0.99973685 1.0014821 1.0009441 1.0000091
0.99972534 0.9997116 1.0007042 1.0026678 1.0014395 1.0003327 0.9995944 1.0007885
1.001927 0.9997802 0.99929196 1.0000978 1.000613 0.9992194 1.000372 0.9997235
1.001372 1.000544 0.99941266 1.0004748 0.9989941 1.0006412 1.0010775 1.0000705
1.0001241 1.0010465 1.0003399 0.9993136 1.0007349 1.0012821 0.99910444 1.0000513
0.99997836 1.0001067 1.0017147 0.99997634 1.0006684 0.99859196 0.99986 1.0000795
1.0001659 0.99823105 0.9989471 1.0007198 0.9989896 0.9995576 0.9993133 0.99914783
1.0005938 0.9997767 0.9984834 1.0010726 1.0014375 1.0006016 0.9997599 1.0011137
1.003068 0.99909806 0.99909085 1.0000315 1.0004854 0.999741 0.99867535 0.9988217
0.9984699 0.9989639 1.0006775 1.000245 0.9992189 1.001417 0.99928737 1.0008414
0.9996532 1.0000528 1.0007863 1.0009845 1.001001 1.0019501 0.9993217 0.9995424
0.9984694 0.99979174 1.000517 0.9996162 0.9989166 1.0008621 1.0000906 1.0010182
1.000956 0.99952644 1.0009542 1.0005027 1.0016938 1.0005949 0.9995438 1.0006719
0.9982718 1.000605 0.9993513 0.9998311 0.99919933 1.000129 0.99908626 1.0016371
1.0008764 0.9989515 0.99977773 0.99903023 1.0001307 0.99957526 0.9999713 1.0011914
0.99900836 1.0010036 0.9990182 0.9983825 0.9991107 0.99891 0.9986349 1.0001365
0.9995542 1.0001739 1.0012372 0.99947494 1.0013204 0.99954116 1.0005966 0.9993301
0.999685 0.9998136 1.0002013 1.0008641 1.000523 0.9999648 0.99875915 1.0006799
1.0011715 0.9999199 0.99847764 0.9998816 1.0011859 0.9995971 0.9994113 0.9996395
1.0005653 0.99993664 0.9981054 1.0011866 1.0002749 0.9993327 0.99944365 0.99992853
0.9985467 0.99888843 1.0005424 0.9992846 1.0001441 0.9987766 1.0009336 1.0002071
1.0012347 0.99939275 0.9995473 0.9989189 1.0019102 0.99920064 1.000473 0.9998624
1.0010043 1.0004485 0.999621 0.9981327 1.000145 0.99898326 1.0009966 0.99977595
1.0001374 0.9996282 0.99902296 0.9994393 1.0010422 1.0012591 0.99905574 0.9991268
1.0001014 1.0012665 1.0011277 0.99878466 1.0008202 0.99960744 1.0011103 0.9999966
00000000: b78f 7f3f 6118 803f 26bc 7f3f 33bf 7f3f
00000010: c1ee 7f3f 9130 803f f01e 803f 4c00 803f
00000020: 00ee 7f3f 19ed 7f3f 1317 803f 6b57 803f
00000030: 2b2f 803f e70a 803f 6be5 7f3f d619 803f
00000040: 253f 803f 98f1 7f3f 99d1 7f3f 3403 803f
00000050: 1614 803f d8cc 7f3f 310c 803f e1ed 7f3f
00000060: f52c 803f d311 803f 82d9 7f3f 8f0f 803f
00000070: 14be 7f3f 0315 803f 4f23 803f 4f02 803f
00000080: 1104 803f 4b22 803f 230b 803f 04d3 7f3f
00000090: 1518 803f 032a 803f 4fc5 7f3f ae01 803f
000000a0: 95fe 7f3f 7f03 803f 3038 803f 73fe 7f3f
000000b0: e715 803f b9a3 7f3f d3f6 7f3f 9b02 803f
000000c0: 7005 803f 128c 7f3f ffba 7f3f 9617 803f
000000d0: c8bd 7f3f 02e3 7f3f ffd2 7f3f 27c8 7f3f
000000e0: 7513 803f 5ef1 7f3f 9c9c 7f3f 2623 803f
000000f0: 1b2f 803f b713 803f 44f0 7f3f 7e24 803f
00000100: 8864 803f e4c4 7f3f 6bc4 7f3f 0801 803f
00000110: e80f 803f 07ef 7f3f 30a9 7f3f c7b2 7f3f
00000120: b99b 7f3f 19bc 7f3f 3316 803f 0708 803f
00000130: cfcc 7f3f 6f2e 803f 4cd1 7f3f 921b 803f
00000140: 46e9 7f3f bb01 803f c419 803f 4320 803f
00000150: cd20 803f e73f 803f 8cd3 7f3f 03e2 7f3f
00000160: b19b 7f3f 5af2 7f3f f110 803f d9e6 7f3f
00000170: 00b9 7f3f 401c 803f f802 803f 5d21 803f
00000180: 541f 803f f7e0 7f3f 441f 803f 7910 803f
00000190: 8137 803f 7e13 803f 1ae2 7f3f 0416 803f
000001a0: be8e 7f3f d313 803f 7dd5 7f3f eef4 7f3f
000001b0: 87cb 7f3f 3a04 803f 1ec4 7f3f a535 803f
000001c0: b81c 803f 49bb 7f3f 6ff1 7f3f 72c0 7f3f
000001d0: 4804 803f 2ae4 7f3f 1efe 7f3f 0a27 803f
000001e0: 03bf 7f3f e320 803f a8bf 7f3f ff95 7f3f
000001f0: b8c5 7f3f 91b8 7f3f 89a6 7f3f 7904 803f
00000200: c9e2 7f3f b305 803f 8a28 803f 97dd 7f3f
00000210: 442b 803f eee1 7f3f 8d13 803f 19d4 7f3f
00000220: 5beb 7f3f c9f3 7f3f 9906 803f 511c 803f
00000230: 2311 803f b1fd 7f3f aeae 7f3f 4716 803f
00000240: 6326 803f c0fa 7f3f 3b9c 7f3f 3ef8 7f3f
00000250: dc26 803f 98e5 7f3f 6bd9 7f3f 60e8 7f3f
00000260: 8612 803f d9fb 7f3f d683 7f3f e226 803f
00000270: 0209 803f 45d4 7f3f 8adb 7f3f 51fb 7f3f
00000280: c2a0 7f3f 27b7 7f3f c611 803f 1ed1 7f3f
00000290: b904 803f d3af 7f3f 981e 803f c906 803f
000002a0: 7528 803f 34d8 7f3f 55e2 7f3f 26b9 7f3f
000002b0: 983e 803f 9dcb 7f3f 800f 803f fbf6 7f3f
000002c0: e920 803f b20e 803f 29e7 7f3f a085 7f3f
000002d0: c004 803f 5ebd 7f3f a820 803f 51f1 7f3f
000002e0: 8104 803f a2e7 7f3f f8bf 7f3f 41db 7f3f
000002f0: 2722 803f 4229 803f 1ec2 7f3f c6c6 7f3f
00000300: 5303 803f 8029 803f f424 803f 5ab0 7f3f
00000310: e01a 803f 46e6 7f3f 6224 803f c7ff 7f3f

main.8.weight f4 [36, 200]
0.019845113 0.09966758 -0.025694298 -0.06854605 -0.03943812 -0.023031708 -0.068905875 0.12897259
0.116016544 0.06670093 0.07893687 0.15493354 0.098990366 -0.05958149 0.10323608 0.027855145
0.17104448 -0.07218581 -0.18678448 -0.013795573 -0.01953865 0.058970336 0.048063967 0.0869687
0.10355121 0.06759262 -0.04852306 0.013739252 -0.04041901 0.08015174 0.037175465 -0.09090699
-0.046958365 0.14848739 0.02590688 -0.0018973765 -0.046377044 -0.095165685 -0.048065852 0.06454251
-0.112775244 0.13279946 -0.032656897 -0.0762198 -0.010431731 -0.024309654 -0.052119236 0.0076051312
0.06807549 0.008890734 -0.15970835 0.17575021 -0.10815859 0.1720882 -0.19559209 -0.13998207
-0.0682662 -0.03340563 0.008521124 0.028462898 0.008133016 -0.06593325 -0.122715086 -0.029646166
0.13917874 -0.19632111 -0.023698146 0.048904423 -0.02424792 0.0033533736 -0.09597055 -0.082653835
-0.089324206 -0.13029155 -0.028439347 -0.016537128 0.073286764 0.13387863 0.02483089 -0.07031752
-0.0041440013 0.16380326 -0.0127737485 0.029862214 0.017140305 -0.04315479 -0.13013625 0.0734696
0.08654732 0.08366421 -0.1529868 -0.095159754 0.10192117 0.08168244 0.10738569 0.09674367
0.08286646 -0.08094132 0.077194184 -0.011643531 -0.077772684 -0.0027470905 -0.06996342 -0.02597203
0.00056441047 0.0034785813 0.10646957 0.03439293 0.0110631585 -0.076349445 -0.1903191 0.19237578
0.013316668 -0.1358967 0.06670894 0.16740361 -0.19528145 -0.02728198 -0.22587359 -0.08750341
0.030585285 0.041773755 0.010023194 -0.16653077 -0.0710928 0.15991178 0.024216993 0.29498056
-0.11188671 -0.0764662 -0.17608781 -0.022928022 0.034141462 0.14872971 -0.071413614 0.049282156
-0.052759353 0.24261512 0.11284054 -0.031993683 0.016963001 -0.24975733 0.03068447 0.061110243
-0.045243137 0.07655293 -0.07349585 0.007642324 -0.11072435 -0.05369799 0.033394236 0.030357815
-0.029477242 0.045446947 -0.033856876 -0.010310115 -0.077140816 0.08062333 -0.035232548 -0.012491823
0.07884993 -0.09044086 -0.07281756 -0.09527547 0.0012051648 -0.05570724 0.06366103 -0.041674607
-0.0019802232 -0.017668113 0.05566994 0.009264659 0.020408176 0.058467433 -0.12951206 0.025715899
-0.12321388 0.09160216 -0.22168575 0.13609405 0.029694786 -0.14048547 -0.12843332 -0.037653312
0.007138588 0.12929007 -0.12756583 -0.12601388 -0.010476934 0.055408906 -0.081955865 -0.13702746
0.046531428 0.042423308 -0.03320174 -0.17520247 0.021585196 0.11194979 -0.036431592 0.06482439
-0.1762463 -0.16307123 0.048541795 0.027055157 0.08885171 0.1641461 -0.015558904 0.010313828
-0.045279976 -0.006847271 -0.057609532 0.09291522 0.20002557 -0.022538858 -0.02470661 0.005556038
-0.07388855 -0.17918941 -0.14792663 0.07918761 0.10214905 -0.012206257 0.096614145 -0.0864979
0.014052647 0.06943254 -0.12076616 -0.06793805 0.056599397 -0.018318148 0.14477178 -0.07629964
-0.12790489 0.16187964 -0.066486284 -0.006986482 -0.04644868 0.054715734 -0.006265298 0.078935646
-0.04583343 0.010706928 -0.039602105 -0.00021461511 -0.04488245 -0.056242954 0.08316376 0.18478648
0.0030520377 -0.19174425 0.010820323 0.1280051 0.18023823 -0.03693947 0.23396906 0.09237498
00000000: 3892 a23c 841e cc3d d97c d2bc df61 8cbd
00000010: de89 21bd feac bcbc 861e 8dbd 6411 043e
00000020: 159a ed3d 7f9a 883d a7a9 a13d e6a6 1e3e
00000030: 76bb ca3d b80b 74bd 706d d33d 7930 e43c
00000040: 4926 2f3e 27d6 93bd 6e44 3fbe d406 62bc
00000050: 850f a0bc e18a 713d b9de 443d a51c b23d
00000060: a812 d43d 006e 8a3d 1ec0 46bd 9a1a 613c
00000070: 678e 25bd 9826 a43d 4d45 183d 722d babd
00000080: 6a57 40bd 140d 183e aa3a d43c 64b1 f8ba
00000090: dbf5 3dbd 3ae6 c2bd b3e0 44bd dd2e 843d
000000a0: b5f6 e6bd 95fc 073e 3dc3 05bd 2019 9cbd
000000b0: dae9 2abc 0a25 c7bc fb7a 55bd 7734 f93b
000000c0: 2a6b 8b3d 71aa 113c 968a 23be ddf7 333e
000000d0: 4082 ddbd e437 303e 4b49 48be 7657 0fbe
000000e0: 26cf 8bbd 58d4 08bd 2f9c 0b3c 062b e93c
000000f0: 5740 053c 0308 87bd 0c52 fbbd 84dc f2bc
00000100: df84 0e3e 6708 49be 9d22 c2bc 0150 483d
00000110: 93a3 c6bc 46c4 5b3b 358c c4bd 6a46 a9bd
00000120: 9cef b6bd 266b 05be a2f9 e8bc df78 87bc
00000130: 5f17 963d 7b17 093e 276a cb3c a202 90bd
00000140: 67ca 87bb 0bbc 273e fc48 51bc 9aa1 f43c
00000150: d369 8c3c 14c3 30bd 7042 05be 3b77 963d
00000160: b93f b13d 2458 ab3d 92a8 1cbe 1ee3 c2bd
00000170: 0cbc d03d 2049 a73d 07ed db3d 8c21 c63d
00000180: e4b5 a93d 90c4 a5bd fc17 9e3d 82c4 3ebc
00000190: 4947 9fbd 8808 34bb fb48 8fbd 4bc3 d4bc
000001a0: f2f4 133a e9f8 633b b80c da3d 9adf 0c3d
000001b0: 4042 353c 195d 9cbd 03e3 42be 28fe 443e
000001c0: 272e 5a3c 8128 0bbe b29e 883d da6b 2b3e
000001d0: dcf7 47be 757e dfbc 684b 67be fd34 b3bd
000001e0: fe8d fa3c f51a 2b3d 5338 243c 0b87 2abe
000001f0: 1a99 91bd eabf 233e b762 c63c b107 973e
00000200: dc24 e5bd 509a 9cbd 5d50 34be 8cd3 bbbc
00000210: ebd7 0b3d 9a4c 183e 4d41 92bd 16dc 493d
00000220: 311a 58bd 1970 783e f118 e73d cf0b 03bd
00000230: fef5 8a3c 63c0 7fbe ff5d fb3c bc4e 7a3d
00000240: de50 39bd c8c7 9c3d fe84 96bd 766c fa3b
00000250: 73c3 e2bd 6cf2 5bbd 65c8 083d f4b0 f83c
00000260: 427a f1bc 9426 3a3d 82ad 0abd c2eb 28bc
00000270: 01fc 9dbd d81d a53d 0150 10bd 81aa 4cbc
00000280: 127c a13d 0f39 b9bd 5f21 95bd c91f c3bd
00000290: 9ff6 9d3a 462d 64bd b760 823d feb2 2abd
000002a0: a2c6 01bb b8bc 90bc 2a06 643d ccca 173c
000002b0: 0c2f a73c 8c7b 6f3d cf9e 04be 26aa d23c
000002c0: 8f57 fcbd ea99 bb3d 9701 63be 3d5c 0b3e
000002d0: 7b42 f33c 6cdb 0fbe 0684 03be 5c3a 1abd
000002e0: d1ea e93b 9e64 043e 9ea0 02be c809 01be
000002f0: 72a7 2bbc 73f4 623d 7ad8 a7bd ed50 0cbe
00000300: bd97 3e3d 10c4 2d3d 8cfe 07bd 4768 33be
00000310: 70d3 b03c ee45 e53d 4b39 15bd a6c2 843d
00000320: e979 34be 25fc 26be c3d3 463d c7a2 dd3c
00000330: e3f7 b53d ea15 283e c6ea 7ebc 54fb 283c
00000340: 7f77 39bd 135f e0bb f9f7 6bbd 564a be3d
00000350: 81d3 4c3e 69a3 b8bc 8465 cabc 6d0f b63b
00000360: e152 97bd 6e7d 37be 147a 17be 1d2d a23d
00000370: 8533 d13d c1fc 47bc a3dd c53d d025 b1bd
00000380: 133d 663c a632 8e3d 4054 f7bd 1b23 8bbd
00000390: c5d4 673d f10f 96bc 0e3f 143e fc42 9cbd
000003a0: 80f9 02be c7c3 253e f629 88bd dcee e4bb
000003b0: f940 3ebd 9b1d 603d 214d cdbb 03a9 a13d
000003c0: d6bb 3bbd 1c6c 2f3c d135 22bd 4e0a 61b9
000003d0: a9d6 37bd 035f 66bd c351 aa3d ab38 3d3e
000003e0: b204 483b 9b58 44be b947 313c c513 033e
000003f0: 5f90 383e d74d 17bd 9695 6f3e 182f bd3d
