Network results/netG_sigma_polynomial1-12-18-30-z.pt (torch, 519815 bytes, 10 tensors)

main.0.weight f4 [200, 6]
0	0xbda74b8f	-0.081687085
1	0xbe2a97de	-0.16659495
2	0x3d19a04d	0.03750639
3	0x3b2ef40f	0.0026695763
4	0x3e2b652b	0.16737811
5	0x3e834152	0.25635773
6	0xbc82089b	-0.015873244
7	0xbb57246e	-0.003282811
8	0xbb9a958d	-0.004717535
9	0xbd4ac92f	-0.04950827
10	0x3d263338	0.04057619
11	0x3d1f1125	0.03883471
12	0xbda20694	-0.07911411
13	0x3b41913f	0.0029536036
14	0x3d2736a7	0.040823605
15	0x3d0d7361	0.034533862
16	0x3d58ba80	0.052912235
17	0x3da8eafc	0.08247945
18	0xbe2066a4	-0.15664154
19	0x3e5a4557	0.21315514
20	0xbd5d52e2	-0.05403412
21	0x3cecd6e0	0.028911054
22	0x3e7dd9cd	0.24790116
23	0x3d6fbf0e	0.058531813
24	0x3ce42bcb	0.027852913
25	0x3dfd7f23	0.12377765
26	0xbd1a8250	-0.037721932
27	0xbc63b0c2	-0.013897123
28	0x3e79ae4b	0.24382894
29	0xbd9e3f81	-0.07726956
30	0x3db7a4ad	0.08966956
31	0xbc482aab	-0.012217204
32	0x3ce08b9c	0.027410321
33	0x3cc8bc95	0.024503985
34	0xbc2689e6	-0.0101647135
35	0x3db074a1	0.08615995
36	0xbd6699a7	-0.056298878
37	0x3cc22b04	0.023702152
38	0x3d19d250	0.037554085
39	0xbd05a2f1	-0.032626096
40	0xbd922363	-0.07135656
41	0xbba70684	-0.0050972123
42	0x3e035295	0.12824471
43	0x3d5c8ba7	0.05384412
44	0xbd769371	-0.060199205
45	0xbdd732f5	-0.10507766
46	0x3e00c8ab	0.12576549
47	0xbe4fa409	-0.20277418
48	0xbc8975d5	-0.01677982
49	0xbc171a2a	-0.009222547
50	0xbd8b64de	-0.06806348
51	0xbb0f0dc8	-0.0021828283
52	0xbbe85d9b	-0.0070912368
53	0x3d4334e2	0.047657855
54	0xbdfc7d8f	-0.12328636
55	0xbda0f94d	-0.0786005
56	0x3c3828ad	0.011240167
57	0xbc0102fe	-0.007874249
58	0xbdd89367	-0.1057499
59	0x3d81a230	0.06329763
60	0xbda7b2a6	-0.08188371
61	0xbd881bcf	-0.06645929
62	0x3d12e345	0.035861272
63	0x3d9df0ce	0.077119455
64	0x3c94b748	0.018153802
65	0x3d7d3c15	0.061824877
66	0xbd97c0da	-0.074098304
67	0x3e27eb33	0.16398315
68	0x3da2bed4	0.07946554
69	0xbd4dbd90	-0.05022961
70	0xbd3fc072	-0.04681439
71	0x3de61201	0.11233903
72	0xbd7a2ee2	-0.061079867
73	0x3e3c4aa0	0.18387842
74	0xbe542d63	-0.20720439
75	0x3d1f629e	0.038912408
76	0xbe087c48	-0.1332866
77	0x3d35411f	0.044251557
78	0xbd8d3c33	-0.06896248
79	0xbdfa3346	-0.12216811
80	0x3c259e1e	0.010108499
81	0x3df856bf	0.121259205
82	0xbe01de15	-0.12682374
83	0xbc0fbbb2	-0.008772777
84	0x3d17f3e4	0.037097827
85	0xbdb18b8e	-0.08669196
86	0xbe54aff5	-0.20770247
87	0xbdd546dc	-0.10413906
88	0xbdd220fb	-0.10260197
89	0xbd175cb6	-0.03695365
90	0x3cabc838	0.020969495
91	0xbcd3bbb0	-0.025846332
92	0x3dc5c1aa	0.09656079
93	0x3cc565d8	0.024096414
94	0xbe1838c4	-0.14865404
95	0xbd56f1ec	-0.05247681
96	0xbd9294ec	-0.07157311
97	0x3e2a5280	0.16633034
98	0xbc092354	-0.008370239
99	0xbd1aa938	-0.037759036
100	0xbd6cdc36	-0.057827197
101	0x3dc6248e	0.09674941
102	0x3cfd682e	0.030933466
103	0x3d7068c3	0.05869366
104	0xbda1396e	-0.07872282
105	0x3e428476	0.18995842
106	0x3e200af6	0.15629181
107	0xbe440dd3	-0.19145899
108	0xbe0b5aeb	-0.13608901
109	0x3d5cd5c3	0.053914797
110	0xbbe873f8	-0.0070939027
111	0xbe0037b1	-0.12521245
112	0x3d74a8e4	0.05973138
113	0x3dc0b677	0.094098024
114	0x3e08b07d	0.13348575
115	0xbd6c1eb7	-0.05764648
116	0xbd1cca3e	-0.03827881
117	0x3d8d4edd	0.068998076
118	0xbd9413d3	-0.07230344
119	0xbe7ef274	-0.24897176
120	0x3e0b0b82	0.13578609
121	0xbdb28870	-0.0871743
122	0xbd509c9a	-0.050930597
123	0xbd972431	-0.0737995
124	0x3d1f5197	0.03889617
125	0xbd4ca45e	-0.04996144
126	0xbe3efa13	-0.18650083
127	0x3c4b31af	0.012401982
128	0xbd986ef1	-0.074430354
129	0x3cd096cd	0.025462532
130	0x3df59cc1	0.11992789
131	0xbe77aaa2	-0.24186185
132	0xbcbf66d4	-0.023364462
133	0x3db569f9	0.08858103
134	0xbc68b76a	-0.014203886
135	0xbd4d4abb	-0.050120097
136	0x3c45fc15	0.012084027
137	0xbc4c9d9c	-0.012488749
138	0xbd9eb7b7	-0.077498846
139	0xbd679509	-0.056538615
140	0x3e56afd5	0.20965512
141	0xbe433a17	-0.19065128
142	0x3d5117f2	0.051048227
143	0x3ccab3f3	0.02474401
144	0xbe3487a9	-0.17629875
145	0xbd7ecd00	-0.062207222
146	0xbd9feaae	-0.078084335
147	0x3e0a96e6	0.13534126
148	0xbe2fd148	-0.17169678
149	0x3cab1e79	0.020888554
150	0xbe2fe9cc	-0.1717903
151	0x3e307a04	0.17234045
152	0xbc9f4a4e	-0.01944461
153	0x3d10e5e0	0.035375476
154	0xbdc2ea63	-0.09517362
155	0xbd9dcd52	-0.07705177
156	0x3dd84be4	0.1056135
157	0xbd94fe75	-0.07275096
158	0xbca5824e	-0.020203736
159	0xbe378a83	-0.17923932
160	0x3d787316	0.06065663
161	0x3dd372fc	0.10324666
162	0x3e271571	0.16316773
163	0xbd8e67b8	-0.069533765
164	0xbde8972b	-0.11356958
165	0x3cc47d9d	0.023985678
166	0xbd9e6b40	-0.077353
167	0xbd8eed5d	-0.06978867
168	0xbe08f000	-0.13372803
169	0x3cb41638	0.021983251
170	0x3b783145	0.0037871164
171	0x3bc7425b	0.0060809082
172	0x3d374db8	0.044751853
173	0xbd8d6616	-0.06904237
174	0xbdc019be	-0.0937991
175	0x3c37aebe	0.011211095
176	0x3bc231f3	0.0059263646
177	0xbcb69451	-0.02228752
178	0xbdc988a3	-0.098405145
179	0xbd5fb90f	-0.054619845
180	0xbe12d887	-0.14340411
181	0x3c204057	0.009780965
182	0xbd24be57	-0.040220585
183	0xbc912215	-0.017716447
184	0xbc9d7f13	-0.019225633
185	0x3d61a193	0.05508573
186	0xbe280586	-0.16408357
187	0xbd086681	-0.03330088
188	0x3df91a09	0.12163169
189	0x3e18a4b0	0.14906573
190	0xbd42324e	-0.047411256
191	0x3e2941c3	0.16528992
192	0xbd9550ff	-0.072908394
193	0x3dcf8f19	0.101347156
194	0xbdc20e4b	-0.094753824
195	0x3d4752c3	0.048662912
196	0x3e1de016	0.15417513
197	0xbe03ea50	-0.12882352
198	0xbcecbba1	-0.028898062
199	0x3d397e6f	0.045286592
200	0x3d83e8ce	0.06440888
201	0x3d3c8f29	0.046034966
202	0x3e204b58	0.15653741
203	0xbc51b973	-0.012800562
204	0xbd5f1f46	-0.054473184
205	0xbda5dab0	-0.08098352
206	0x3d498686	0.049200557
207	0xbd8c64b3	-0.06855144
208	0xbea10f1a	-0.31456834
209	0x3d665577	0.05623385
210	0x3e0b9438	0.1363076
211	0x3de62864	0.11238173
212	0xbe2a00cf	-0.16601871
213	0xbcb9e6e3	-0.022693103
214	0xbdbb186a	-0.09135516
215	0x3da065c0	0.07831907
216	0x3b62582b	0.0034537415
217	0xbe2e69f9	-0.17032613
218	0xbdcccdea	-0.100002125
219	0xbe4bb7fd	-0.19894405
220	0x3b07dc67	0.0020730735
221	0x3e2d618c	0.16931742
222	0xbd2a70e7	-0.04161158
223	0x3dddc845	0.10829214
224	0xbdd5be2e	-0.104366645
225	0xbcca0e9d	-0.024665171
226	0xbdba4dd5	-0.090968765
227	0x3dd1bce2	0.10241105
228	0x3dc1ee61	0.09469295
229	0xbdc82bc3	-0.09773972
230	0x3da03fec	0.07824692
231	0xbdd21d01	-0.10259438
232	0xbcfe9182	-0.031075243
233	0xbdc09519	-0.09403438
234	0x3e47f2e6	0.19526252
235	0x3cd58d96	0.02606849
236	0x3dd484d8	0.103769004
237	0x3c2f80ec	0.01071189
238	0xbe35f69b	-0.17769854
239	0x3d0722bd	0.032992113
240	0xbd4cb035	-0.04997273
241	0x3dd2ddc6	0.10296206
242	0x3e2a205b	0.16613905
243	0x3d9b6f0c	0.0758954
244	0xbe76b86f	-0.24093793
245	0xbd9f54ea	-0.07779868
246	0xbd94b8f7	-0.07261842
247	0xbd923228	-0.07138473
248	0xbe038395	-0.12843163
249	0xbcd2a752	-0.02571455
250	0x3d662a8b	0.056192916
251	0x3c5b443c	0.013382968
252	0xbe3e16ac	-0.18563336
253	0x3c1f074d	0.0097063305
254	0x3df932e6	0.12167911
255	0xbd87f3cc	-0.066382974

main.0.bias f4 [200]
0	0x3f7f99c1	0.99843985
1	0x3f802811	1.0012227
2	0x3f7fe269	0.9995485
3	0x3f7f96b4	0.9983933
4	0x3f7fab00	0.998703
5	0x3f7f7e58	0.9980216
6	0x3f7f7eb3	0.998027
7	0x3f80409e	1.001972
8	0x3f803e59	1.0019027
9	0x3f7f86fe	0.99815357
10	0x3f80243f	1.0011061
11	0x3f801241	1.0005571
12	0x3f7f9a96	0.99845254
13	0x3f802b10	1.0013142
14	0x3f8017f0	1.0007305
15	0x3f7fd8ef	0.9994039
16	0x3f8006a6	1.0002029
17	0x3f7fb575	0.99886256
18	0x3f7fb922	0.99891865
19	0x3f7fde7b	0.99948853
20	0x3f7fd03b	0.9992711
21	0x3f7f9604	0.9983828
22	0x3f7f79e3	0.9979536
23	0x3f7f923e	0.9983252
24	0x3f7f7384	0.9978564
25	0x3f7f993f	0.9984321
26	0x3f802d76	1.0013874
27	0x3f804db9	1.0023719
28	0x3f801a6c	1.0008063
29	0x3f7f50bc	0.99732566
30	0x3f801d27	1.0008897
31	0x3f7fa07e	0.99854267
32	0x3f7fafcc	0.9987762
33	0x3f80453b	1.0021127
34	0x3f7f977e	0.99840534
35	0x3f802af7	1.0013112
36	0x3f7fb40e	0.99884117
37	0x3f7fb094	0.9987881
38	0x3f803310	1.0015583
39	0x3f803576	1.0016315
40	0x3f803d7c	1.0018764
41	0x3f7f8c3c	0.99823356
42	0x3f7ff266	0.99979246
43	0x3f80596b	1.0027288
44	0x3f7fbe20	0.9989948
45	0x3f802639	1.0011665
46	0x3f803db5	1.0018831
47	0x3f7f86e3	0.99815196
48	0x3f7fd81f	0.9993915
49	0x3f7fb6c5	0.9988826
50	0x3f7fa53a	0.9986149
51	0x3f7f9483	0.99835986
52	0x3f7fc68a	0.9991232
53	0x3f801de4	1.0009122
54	0x3f7f9069	0.9982973
55	0x3f802508	1.0011301
56	0x3f7f6590	0.9976435
57	0x3f801995	1.0007807
58	0x3f8025de	1.0011556
59	0x3f7f902d	0.9982937
60	0x3f7f9219	0.998323
61	0x3f800952	1.0002844
62	0x3f7f85e0	0.9981365
63	0x3f803e81	1.0019075
64	0x3f801951	1.0007726
65	0x3f7fadeb	0.9987475
66	0x3f7f51a5	0.99733955
67	0x3f7f9688	0.9983907
68	0x3f7fa739	0.99864537
69	0x3f7fa8fc	0.99867225
70	0x3f7fd076	0.9992746
71	0x3f803bf9	1.0018302
72	0x3f7f6118	0.9975753
73	0x3f803042	1.0014727
74	0x3f80453f	1.0021132
75	0x3f802026	1.0009811
76	0x3f7f979a	0.998407
77	0x3f7f8baf	0.99822515
78	0x3f804ecc	1.0024047
79	0x3f800b9f	1.0003546
80	0x3f8067fb	1.0031732
81	0x3f7fd4f2	0.99934304
82	0x3f803323	1.0015606
83	0x3f7fc924	0.9991629
84	0x3f802878	1.001235
85	0x3f8021c2	1.0010302
86	0x3f7f87b4	0.9981644
87	0x3f801e9a	1.0009339
88	0x3f7f9689	0.99839073
89	0x3f7f6e7c	0.9977796
90	0x3f7ffc3c	0.99994254
91	0x3f7fc5b2	0.99911034
92	0x3f7f9a34	0.9984467
93	0x3f7fc3bd	0.9990805
94	0x3f8003e4	1.0001187
95	0x3f7fc6c9	0.999127
96	0x3f803ba4	1.0018201
97	0x3f8006ef	1.0002116
98	0x3f7fab7f	0.9987106
99	0x3f80385f	1.0017203
100	0x3f802635	1.001166
101	0x3f7f923a	0.998325
102	0x3f7fae3b	0.9987523
103	0x3f803405	1.0015875
104	0x3f802871	1.0012342
105	0x3f800bdc	1.0003619
106	0x3f7f87e4	0.9981673
107	0x3f7f98d4	0.9984257
108	0x3f803a43	1.001778
109	0x3f7fe841	0.99963766
110	0x3f7fec60	0.99970055
111	0x3f7f81ae	0.9980725
112	0x3f7f3536	0.9969057
113	0x3f7f621c	0.9975908
114	0x3f7fdd37	0.9994692
115	0x3f7fb8be	0.9989127
116	0x3f7fb016	0.9987806
117	0x3f803bb4	1.001822
118	0x3f7f82de	0.9980906
119	0x3f7fab24	0.99870515
120	0x3f7f9e1b	0.99850625
121	0x3f8028ac	1.0012412
122	0x3f7fc012	0.9990245
123	0x3f7f7c18	0.9979873
124	0x3f7fac96	0.9987272
125	0x3f802e54	1.0014138
126	0x3f7f633c	0.99760795
127	0x3f80069f	1.0002021
128	0x3f7f875a	0.99815905
129	0x3f80250f	1.0011309
130	0x3f804314	1.0020471
131	0x3f7ffb73	0.99993056
132	0x3f8029ca	1.0012753
133	0x3f805107	1.0024728
134	0x3f800b16	1.0003383
135	0x3f80327d	1.0015408
136	0x3f7f8d60	0.99825096
137	0x3f801b5b	1.0008348
138	0x3f802f4c	1.0014434
139	0x3f803c37	1.0018376
140	0x3f7f7b37	0.99797386
141	0x3f7fa990	0.99868107
142	0x3f801656	1.0006816
143	0x3f7fa8cc	0.9986694
144	0x3f80228d	1.0010544
145	0x3f7fec22	0.99969685
146	0x3f7fbb21	0.9989491
147	0x3f7f8ce5	0.99824363
148	0x3f7fb567	0.99886173
149	0x3f80216d	1.0010201
150	0x3f7fc9a2	0.9991704
151	0x3f8041b9	1.0020057
152	0x3f80341a	1.00159
153	0x3f801b0a	1.0008252
154	0x3f7fb4f4	0.9988549
155	0x3f803028	1.0014696
156	0x3f7f98b9	0.9984241
157	0x3f7f9fd0	0.9985323
158	0x3f802bce	1.0013368
159	0x3f8047e2	1.0021937
160	0x3f8026a4	1.0011792
161	0x3f80356d	1.0016304
162	0x3f801f2e	1.0009515
163	0x3f7fadaa	0.99874365
164	0x3f801a87	1.0008096
165	0x3f7f9f81	0.9985276
166	0x3f7fc9be	0.9991721
167	0x3f7f87d8	0.99816656
168	0x3f7fe887	0.99964184
169	0x3f803020	1.0014687
170	0x3f7f8252	0.9980823
171	0x3f800017	1.0000027
172	0x3f8032d0	1.0015507
173	0x3f7fc63d	0.9991186
174	0x3f80472d	1.0021721
175	0x3f80390e	1.0017412
176	0x3f7fbeb3	0.9990036
177	0x3f7f91e6	0.99832
178	0x3f802926	1.0012558
179	0x3f803c5c	1.001842
180	0x3f7fede9	0.999724
181	0x3f7f9829	0.9984155
182	0x3f7f8a84	0.99820733
183	0x3f803745	1.0016867
184	0x3f7f9cc6	0.9984859
185	0x3f801784	1.0007176
186	0x3f7f97a4	0.9984076
187	0x3f801a13	1.0007957
188	0x3f7f5744	0.9974253
189	0x3f7fd28b	0.9993064
190	0x3f7f9ea1	0.99851424
191	0x3f7fce73	0.9992439
192	0x3f7fc65d	0.99912053
193	0x3f80215a	1.0010178
194	0x3f7fdf97	0.99950546
195	0x3f801635	1.0006777
196	0x3f7fc834	0.9991486
197	0x3f7f739d	0.99785787
198	0x3f7fcd33	0.99922484
199	0x3f802c3f	1.0013503

main.2.weight f4 [200, 200]
0	0x3b996090	0.0046807006
1	0xbd924deb	-0.07143768
2	0x3e20ac1e	0.15690657
3	0xbd48349d	-0.0488783
4	0x3c0460c7	0.008079714
5	0x3d9cf743	0.07664349
6	0x3def7521	0.116922624
7	0x3da63296	0.08115117
8	0xbba75c2e	-0.005107424
9	0x3cc1bdc7	0.023650063
10	0xbc02dc31	-0.007987068
11	0x3da3e1d7	0.0800206
12	0x3da716ce	0.081586465
13	0xbd950ae5	-0.072774686
14	0x3cf25d41	0.029585483
15	0x3ba411a5	0.005006986
16	0x3da2f2e6	0.079564855
17	0x3be269c3	0.0069095804
18	0xbd1865f2	-0.037206598
19	0xbe4594a0	-0.19294977
20	0x3ca29b8d	0.019849563
21	0x3cc970b9	0.024589883
22	0x3e0c7d0f	0.13719581
23	0xbe1ce9c1	-0.15323545
24	0xbcaf7aa7	-0.02142079
25	0xbe1bf754	-0.15231067
26	0x3d8ff2c9	0.070287295
27	0x3d9f8ad9	0.07790155
28	0x3dbdea8e	0.092732534
29	0x3da0eb63	0.078573965
30	0x3da2f4da	0.07956858
31	0x3d199b0b	0.037501376
32	0xbc0f3110	-0.008739725
33	0xbdb9a7e8	-0.09065229
34	0x3d911076	0.07083218
35	0xbd5d85d0	-0.05408269
36	0xbb8803a1	-0.004150823
37	0xbd5e3e23	-0.054258477
38	0x3d34172e	0.04396742
39	0x3b47b5ee	0.0030473429
40	0x3d0c644a	0.03427533
41	0xbe4b9225	-0.19879968
42	0xbe04a9f0	-0.12955451
43	0xbcb5c32a	-0.022187788
44	0xbb380d96	-0.002808427
45	0xbe28c652	-0.16481903
46	0x3e2237ac	0.1584155
47	0x3caebf5e	0.021331485
48	0x3ded9db0	0.11602342
49	0x3deb38a6	0.11485414
50	0x3af57c49	0.0018729056
51	0x3d1d057a	0.0383353
52	0x3e371fc7	0.17883216
53	0xbde18a1f	-0.11012673
54	0xbde78531	-0.11304701
55	0xbe1c6718	-0.15273702
56	0x3e343a99	0.17600478
57	0x3d91cedc	0.071195334
58	0xbd86eead	-0.065884925
59	0x3cce5a8a	0.025189657
60	0xbe07b256	-0.13251624
61	0xbc7cad42	-0.015422167
62	0x3e49308d	0.19647427
63	0xbe1c4468	-0.1526047
64	0x3c42ddd4	0.011893708
65	0x3e714eb0	0.23565173
66	0x3e456da3	0.19280104
67	0xbbafc318	-0.005363833
68	0x3a9612b7	0.0011449669
69	0xbdef3dde	-0.11681722
70	0xbd3555a0	-0.04427111
71	0xbde971e7	-0.11398678
72	0xbd504cc1	-0.05085445
73	0xbdf92eaf	-0.12167107
74	0xbd235edb	-0.039885383
75	0x3d6fcc67	0.058544543
76	0x3e357698	0.17721021
77	0x3c887771	0.016658517
78	0xbd750f15	-0.059828836
79	0xbc63bbf5	-0.013899793
80	0xbd11baa4	-0.035578385
81	0x3e1648e1	0.14676239
82	0x3e392aa3	0.18082671
83	0xbda53588	-0.08066851
84	0xbce86031	-0.02836618
85	0xbd166bc7	-0.03672388
86	0xbb68f9b8	-0.0035549235
87	0xbdd988c4	-0.10621789
88	0x3bf34bb8	0.007424798
89	0xbd943c7a	-0.072380975
90	0x3e02fc4f	0.1279156
91	0xbcaf6ab4	-0.021413185
92	0xbcf8d789	-0.030376213
93	0x3dadb7cb	0.08482321
94	0xbd806160	-0.06268573
95	0xbda63ee2	-0.08117463
96	0x3dac83f9	0.08423609
97	0xbd5d5efd	-0.054045666
98	0x3dcda93b	0.10042044
99	0xbbb38d94	-0.005479524
100	0x3d9c4397	0.07630079
101	0xbe24e685	-0.16103561
102	0xbe2d6ce0	-0.16936064
103	0xbe17a46a	-0.14808813
104	0x3ae072fd	0.0017124113
105	0xbcea11d6	-0.028572958
106	0xbdfb2f0c	-0.12264833
107	0x3e42ba1d	0.19016309
108	0x3c49aaf8	0.0123088285
109	0x3d952e51	0.07284225
110	0x3b394ae8	0.0028273407
111	0x3d5b5ac9	0.053553376
112	0x3e6d41fc	0.23169702
113	0x3d116254	0.035494164
114	0x3d9574e9	0.072976895
115	0xbd19763d	-0.037466276
116	0xbe231c62	-0.15928796
117	0x3e8475ba	0.25871068
118	0x3e076e28	0.13225615
119	0x3df8093c	0.12111136
120	0x3d9b3895	0.075791515
121	0xbce01bbe	-0.027356979
122	0xbd0f69c3	-0.03501297
123	0xbcfcb692	-0.030848775
124	0x3d729ede	0.05923354
125	0x3d1b07f8	0.037849396
126	0xbcd616a6	-0.026133846
127	0x3d951b9c	0.07280657
128	0xbdddd663	-0.10831907
129	0xbd29c330	-0.04144591
130	0xbe0cbadd	-0.13743158
131	0xbd0c66a5	-0.034277577
132	0xbe64ca2d	-0.22342749
133	0x3df481a5	0.1193879
134	0xb5e00870	-1.6691756e-06
135	0xbdd85003	-0.10562136
136	0xbc53d70a	-0.012929687
137	0xbdb34dc7	-0.08755069
138	0x3dbcce21	0.092190035
139	0xbc41e452	-0.011834221
140	0x3e1c035f	0.15235661
141	0xbc9d344a	-0.019189972
142	0x3cf275a2	0.029597107
143	0x3dd574b9	0.10422654
144	0xbd3c6675	-0.04599615
145	0x3e143f37	0.1447724
146	0xbdc039d6	-0.09386031
147	0x3d5f90d5	0.054581482
148	0x3d100fba	0.035171248
149	0x3e23ae1a	0.15984383
150	0x3d83a149	0.06427247
151	0xbcc935f6	-0.024561863
152	0x3c20bc4e	0.00981052
153	0x3d0e05d1	0.034673516
154	0x39a52ae7	0.00031503217
155	0xbbdc8023	-0.0067291423
156	0xbe12bd9d	-0.14330144
157	0xbd927b3a	-0.0715241
158	0x3db1b6e4	0.08677462
159	0xbd37df0f	-0.04489046
160	0xbe0d2bef	-0.1378629
161	0xbd5946fb	-0.053046208
162	0x3db0171b	0.08598157
163	0xbe0ce12e	-0.13757774
164	0xbd0e8740	-0.034796953
165	0xbe19e755	-0.15029652
166	0xbd477b99	-0.048701856
167	0xbda1e039	-0.07904095
168	0xbd1cd543	-0.03828932
169	0xbe491518	-0.19636953
170	0x3db418eb	0.08793815
171	0x3dd074d5	0.10178534
172	0xbd29eb12	-0.041483946
173	0x3de0af3e	0.10970925
174	0xbdff916f	-0.12478911
175	0x3d5b012b	0.05346791
176	0xbc901e23	-0.017592495
177	0xbdbeae2e	-0.09310566
178	0x3d0b540a	0.034015693
179	0x3d5f7fce	0.054565243
180	0xbd8094e6	-0.062784
181	0xbdf225d1	-0.11823619
182	0xbe46b6cb	-0.19405667
183	0xbc7832e7	-0.015148855
184	0xbb3995f8	-0.0028318148
185	0xbc6502a7	-0.013977683
186	0x3d24f710	0.04027468
187	0xbe12fb96	-0.14353785
188	0xbc9a55a0	-0.018839657
189	0xbd25d358	-0.040484756
190	0x3d5463d1	0.051853005
191	0x3d3ea0cb	0.046540063
192	0xbe273e4e	-0.16332361
193	0x3dccd549	0.100016184
194	0x3dff1503	0.124551795
195	0xbd678132	-0.056519695
196	0xbdc94be6	-0.098289296
197	0xbd1e0eb9	-0.03858826
198	0x3db6a835	0.08918802
199	0xbddb55ca	-0.10709722
200	0xbc8e125f	-0.017342744
201	0x3e66da62	0.22544244
202	0xbe0d4be2	-0.13798478
203	0xbcca24a1	-0.02467567
204	0x3e4834f3	0.19551449
205	0xbb6446e4	-0.0034832293
206	0xbdbe7330	-0.09299314
207	0xbd6b326e	-0.05742114
208	0xbd8d6630	-0.06904256
209	0xbe1cc97c	-0.15311235
210	0xbd04dace	-0.03243523
211	0xbd80adc7	-0.062831454
212	0xbd4945f0	-0.049138963
213	0x3d47deb2	0.048796363
214	0x3e38c165	0.18042524
215	0x3e3bdc08	0.18345654
216	0xbe69535c	-0.22785705
217	0x3e3da1c8	0.18518746
218	0x3d9e336c	0.07724652
219	0x3dc501e9	0.09619505
220	0x3ce89e5a	0.02839582
221	0xba6b95e7	-0.0008986876
222	0x3ca60e21	0.020270409
223	0x3daff5b7	0.08591788
224	0xbdfc4b4c	-0.12319049
225	0xbdb24190	-0.08703911
226	0x3db0a30d	0.086248495
227	0xbdc5e677	-0.09663098
228	0x3da2a64d	0.079418756
229	0xbcbd6d5c	-0.023123436
230	0xbe440f3e	-0.1914644
231	0x3dc9fb99	0.098624416
232	0x3ca1e7d8	0.019763872
233	0xbd46eedb	-0.048567634
234	0xbe0bb349	-0.1364261
235	0x3d6de271	0.05807728
236	0x3c3054b5	0.010762383
237	0xbd1285ec	-0.03577225
238	0xbdb4eac1	-0.08833838
239	0x3e3a1390	0.18171525
240	0xbccac737	-0.024753196
241	0x3cf18500	0.029482365
242	0xbcd27807	-0.025692
243	0x3b9b13ef	0.004732601
244	0x3c687abe	0.01418942
245	0xbca2441d	-0.01980787
246	0x3cb185fe	0.021670338
247	0xbe026d90	-0.12737107
248	0xbe182279	-0.148569
249	0xbd54e139	-0.0519726
250	0x3df3b520	0.11899781
251	0x3d477aef	0.048701223
252	0x3d219686	0.03945019
253	0xbd987ef5	-0.0744609
254	0x3d48538e	0.04890781
255	0x3e011bba	0.12608233

main.2.bias f4 [200]
0	0x3f7fc686	0.999123
1	0x3f8035bd	1.00164
2	0x3f7f7115	0.99781924
3	0x3f804e67	1.0023926
4	0x3f800a99	1.0003234
5	0x3f804042	1.001961
6	0x3f803a41	1.0017778
7	0x3f803af1	1.0017987
8	0x3f802bad	1.0013329
9	0x3f7fa8c1	0.99866873
10	0x3f7f883c	0.9981725
11	0x3f802482	1.0011141
12	0x3f8040f5	1.0019823
13	0x3f8041b7	1.0020055
14	0x3f7fc53e	0.9991034
15	0x3f7fc69c	0.9991243
16	0x3f80354a	1.0016263
17	0x3f7fdd61	0.9994717
18	0x3f7fc5d6	0.9991125
19	0x3f7feb65	0.9996856
20	0x3f803281	1.0015413
21	0x3f7f9d4b	0.99849385
22	0x3f802644	1.0011678
23	0x3f7fb9c3	0.99892825
24	0x3f80427e	1.0020292
25	0x3f7f8114	0.9980633
26	0x3f7fac6b	0.99872464
27	0x3f7f6f30	0.99779034
28	0x3f7fa67c	0.9986341
29	0x3f7ff1d6	0.9997839
30	0x3f7f8672	0.9981452
31	0x3f803069	1.0014774
32	0x3f802e8c	1.0014205
33	0x3f803a84	1.0017858
34	0x3f7f8d28	0.9982476
35	0x3f7f60cb	0.9975707
36	0x3f8039bb	1.0017618
37	0x3f7fcbdc	0.9992044
38	0x3f7f8192	0.99807084
39	0x3f7fa3fb	0.9985959
40	0x3f803df8	1.0018911
41	0x3f802a84	1.0012975
42	0x3f7fa0c1	0.99854666
43	0x3f7ffbe9	0.9999376
44	0x3f806ec5	1.0033804
45	0x3f7f6692	0.99765885
46	0x3f802d31	1.0013791
47	0x3f8025d6	1.0011547
48	0x3f800bbe	1.0003583
49	0x3f8032fb	1.0015558
50	0x3f7fa2ec	0.99857974
51	0x3f7f93dd	0.99834996
52	0x3f8001ca	1.0000546
53	0x3f80126b	1.0005621
54	0x3f7f7b8a	0.9979788
55	0x3f7f96ed	0.9983967
56	0x3f7f6c87	0.99774975
57	0x3f804536	1.0021122
58	0x3f80488e	1.0022142
59	0x3f800128	1.0000353
60	0x3f7faa21	0.9986897
61	0x3f8004af	1.0001429
62	0x3f7f905d	0.99829656
63	0x3f7fd84c	0.9993942
64	0x3f7f871c	0.99815536
65	0x3f7f75a0	0.99788857
66	0x3f7fdd89	0.9994741
67	0x3f803804	1.0017095
68	0x3f7f8462	0.99811375
69	0x3f7f9204	0.9983218
70	0x3f8045c4	1.0021291
71	0x3f80181b	1.0007356
72	0x3f7fefa0	0.99975014
73	0x3f802bb9	1.0013343
74	0x3f80475e	1.002178
75	0x3f7f7ec8	0.9980283
76	0x3f803035	1.0014712
77	0x3f802433	1.0011047
78	0x3f803864	1.0017209
79	0x3f8033f5	1.0015856
80	0x3f7faa6f	0.99869436
81	0x3f80353b	1.0016245
82	0x3f7f8fa8	0.9982858
83	0x3f7ff21a	0.9997879
84	0x3f802e9c	1.0014224
85	0x3f803004	1.0014653
86	0x3f7f8276	0.9980844
87	0x3f8001ac	1.000051
88	0x3f800da1	1.0004159
89	0x3f8020c5	1.001
90	0x3f801ee0	1.0009422
91	0x3f7fa7e3	0.9986555
92	0x3f8036d2	1.001673
93	0x3f7f6445	0.99762374
94	0x3f7ffc6d	0.99994546
95	0x3f7f2ed2	0.9968082
96	0x3f7fbecb	0.999005
97	0x3f7fd375	0.9993203
98	0x3f803138	1.001502
99	0x3f801f44	1.0009542
100	0x3f7f9a08	0.9984441
101	0x3f7f9b53	0.9984638
102	0x3f804be1	1.0023156
103	0x3f8031f7	1.0015248
104	0x3f8041c9	1.0020076
105	0x3f7fb6a3	0.99888057
106	0x3f7f9d19	0.99849087
107	0x3f7fd11b	0.99928445
108	0x3f807243	1.003487
109	0x3f7fdba4	0.9994452
110	0x3f801088	1.0005045
111	0x3f8014ee	1.0006387
112	0x3f7fbc15	0.99896365
113	0x3f801d7f	1.0009001
114	0x3f7f9713	0.99839896
115	0x3f7ff827	0.99988025
116	0x3f7fa653	0.99863166
117	0x3f802a57	1.0012921
118	0x3f7f9b33	0.9984619
119	0x3f7fa4c0	0.99860764
120	0x3f7fa887	0.9986653
121	0x3f7fb430	0.9988432
122	0x3f8046ce	1.0021608
123	0x3f7fb429	0.9988428
124	0x3f7fa238	0.998569
125	0x3f7f897c	0.9981916
126	0x3f803a6c	1.0017829
127	0x3f7f9287	0.9983296
128	0x3f7f89dd	0.9981974
129	0x3f8038c2	1.0017321
130	0x3f7fab58	0.99870825
131	0x3f8018e9	1.0007602
132	0x3f80198e	1.0007799
133	0x3f7f9fff	0.9985351
134	0x3f7fa6f3	0.9986412
135	0x3f804230	1.0020199
136	0x3f801cd4	1.0008798
137	0x3f7ffe5a	0.99997485
138	0x3f8010b4	1.0005097
139	0x3f8039e2	1.0017664
140	0x3f8053a2	1.0025523
141	0x3f8038bf	1.0017318
142	0x3f8035e2	1.0016444
143	0x3f7fdfa9	0.99950653
144	0x3f7f80fa	0.9980618
145	0x3f7fb122	0.9987966
146	0x3f8027eb	1.0012182
147	0x3f7fbc92	0.9989711
148	0x3f7fe1b4	0.9995377
149	0x3f7f970b	0.9983985
150	0x3f801dd6	1.0009105
151	0x3f803636	1.0016544
152	0x3f8010c1	1.0005113
153	0x3f7f7891	0.99793345
154	0x3f7f6479	0.99762684
155	0x3f800b99	1.0003539
156	0x3f800aba	1.0003273
157	0x3f7fda46	0.99942434
158	0x3f803b80	1.0018158
159	0x3f80381c	1.0017123
160	0x3f7f9470	0.9983587
161	0x3f80447a	1.0020897
162	0x3f7fd725	0.9993766
163	0x3f800b20	1.0003395
164	0x3f800e4f	1.0004367
165	0x3f801a81	1.0008088
166	0x3f80334a	1.0015652
167	0x3f7f5968	0.997458
168	0x3f7f9a77	0.9984507
169	0x3f803395	1.0015742
170	0x3f7f7bea	0.9979845
171	0x3f800d08	1.0003977
172	0x3f7fa5b1	0.998622
173	0x3f801216	1.0005519
174	0x3f80400d	1.0019547
175	0x3f80451d	1.0021092
176	0x3f7fe2ce	0.9995545
177	0x3f7f88b5	0.99817973
178	0x3f802c3c	1.0013499
179	0x3f7f6a04	0.9977114
180	0x3f802c5f	1.0013541
181	0x3f7f7ff3	0.9980461
182	0x3f7fae10	0.99874973
183	0x3f7f9233	0.9983246
184	0x3f80330c	1.0015578
185	0x3f7fcd92	0.9992305
186	0x3f7ff4d0	0.9998293
187	0x3f7fc2b5	0.99906474
188	0x3f8045b6	1.0021274
189	0x3f8026ec	1.0011878
190	0x3f7fc5a5	0.99910957
191	0x3f7f910a	0.9983069
192	0x3f802d7d	1.0013882
193	0x3f802e29	1.0014087
194	0x3f7f813d	0.99806577
195	0x3f80145b	1.0006212
196	0x3f804c72	1.0023329
197	0x3f804a6c	1.0022712
198	0x3f802c67	1.001355
199	0x3f8031a1	1.0015146

main.4.weight f4 [200, 200]
0	0xbdd40b9a	-0.10353775
1	0x3d252512	0.040318556
2	0xbd676a7b	-0.056498032
3	0xbcc8411a	-0.024445105
4	0x3d2547e7	0.040351775
5	0x3ddfc169	0.10925562
6	0xbddfc429	-0.109260865
7	0x3bd208ce	0.006409741
8	0xbe147a7f	-0.14499854
9	0xbc6ceccd	-0.014460755
10	0x3d575574	0.05257173
11	0xbd998198	-0.07495421
12	0x3d9d26ec	0.076734394
13	0xbdc19680	-0.09452534
14	0x3d368f3f	0.044570204
15	0x3e011ea5	0.12609346
16	0x3e66973b	0.22518627
17	0x3d97f329	0.07419426
18	0x3cfe7c59	0.031065153
19	0x3e061088	0.13092244
20	0xbcc6626f	-0.024216859
21	0x3ded92d4	0.11600271
22	0xbc0eddd0	-0.008719876
23	0x3d240ea5	0.04005303
24	0x3de1913f	0.110140316
25	0x3d78ec81	0.060772423
26	0xbd709b2d	-0.058741737
27	0x3e414673	0.1887453
28	0x3d772f2e	0.06034773
29	0xbdc01057	-0.093781166
30	0xbe185dd2	-0.1487954
31	0x3de7cba6	0.1131814
32	0x3dde8ee7	0.108671
33	0x3e5e433f	0.2170534
34	0x3c5348f3	0.01289581
35	0x3dba8f5a	0.091093734
36	0xba2af087	-0.0006520827
37	0xbdf8fa0c	-0.12157068
38	0xbca353d5	-0.019937435
39	0x3da756f8	0.08170885
40	0x3d8937f1	0.06700123
41	0xbbe12144	-0.0068704206
42	0xbdcfb3c4	-0.101417094
43	0xbc9b98c0	-0.018993735
44	0x3de45bd0	0.11150324
45	0x3c4ce9d7	0.012506924
46	0x3d3d42f3	0.046206426
47	0xbe19b8ca	-0.15011898
48	0x3c240d06	0.010012871
49	0x3d3dd702	0.046347626
50	0xbd6e155b	-0.058125835
51	0xbdec73ca	-0.115455225
52	0xbdf0c04c	-0.11755428
53	0x3d9bf1d8	0.076144874
54	0xbd191123	-0.03736986
55	0x3d2af71e	0.041739576
56	0x3d08afa7	0.03337064
57	0x3d7ac77c	0.0612254
58	0xbd9add7e	-0.075617775
59	0xbdadb8eb	-0.08482536
60	0xbd9a5596	-0.075358555
61	0x3d83a6d4	0.06428304
62	0xbc3955d1	-0.011311964
63	0xbdad8ac5	-0.08473734
64	0xbcde401c	-0.02713018
65	0x3bdadfa3	0.0066794916
66	0xbce72cab	-0.028219542
67	0x3d70d2fc	0.05879496
68	0xbcf3b8e7	-0.029751254
69	0x3de43e3b	0.11144682
70	0x3df80a2f	0.12111317
71	0x3cac970a	0.021068115
72	0x3e2a9085	0.16656692
73	0x3aa96fcf	0.0012926998
74	0xbe04613b	-0.12927715
75	0xbde8fb06	-0.11376004
76	0x3d55a578	0.052159756
77	0x3d340400	0.043949127
78	0x3ca2537f	0.019815205
79	0xbcbc871b	-0.023013642
80	0xbdc0bd31	-0.094110854
81	0xbd936f74	-0.07198992
82	0xbe23461e	-0.15944716
83	0x3d9f1d67	0.0776928
84	0x3ccd5b7f	0.025068043
85	0xbe0521e2	-0.13001207
86	0xbcd9a210	-0.026566535
87	0x3c617e57	0.013763032
88	0xbe7573d7	-0.2396997
89	0xbd832c3e	-0.06404923
90	0x3d72a2b1	0.059237186
91	0xbd0082e3	-0.031374823
92	0xbc84e9a2	-0.016224686
93	0xbe55c3de	-0.20875499
94	0x3bb315fc	0.005465267
95	0x3d1cb683	0.038259994
96	0xbdbba0e5	-0.091615476
97	0xbce7aa73	-0.028279519
98	0x3e098686	0.13430223
99	0x3d182987	0.03714898
100	0x3d44fdc6	0.04809358
101	0xbd8c0ef2	-0.06838788
102	0xbdd6ab70	-0.10481918
103	0x3e0ba8bf	0.1363859
104	0x3d87a702	0.06623651
105	0xbb4d512f	-0.0031328907
106	0xbe05e5f2	-0.13075998
107	0x3d75c342	0.060000665
108	0x3ba8c492	0.005150386
109	0x3dc642b9	0.09680695
110	0xbd94d339	-0.0726685
111	0xbde69799	-0.11259384
112	0x3cc2f0b3	0.023796415
113	0x3d6512c4	0.0559261
114	0xbd8c38d7	-0.06846779
115	0xbd21d56b	-0.03951017
116	0x3c034d34	0.008014012
117	0xb7c1ca94	-2.3101726e-05
118	0x3e137f13	0.14403944
119	0xbc958e36	-0.018256288
120	0xbda1f023	-0.079071306
121	0x3c9d92f9	0.019235121
122	0x3df81e9d	0.12115214
123	0x3d1874d5	0.037220795
124	0xbdfb9b67	-0.122855
125	0xbd9c6088	-0.076355994
126	0xbcc4508b	-0.023964187
127	0xbe0a042d	-0.13478155
128	0x3d3c362f	0.04595011
129	0xbc8de391	-0.017320426
130	0xbe052390	-0.13001847
131	0x3cf4a138	0.029862031
132	0x3c94dbbc	0.018171184
133	0xbcbdfb2f	-0.023191063
134	0xbd3b9df0	-0.045804918
135	0xbd53e1ac	-0.05172889
136	0x3d2f8c4f	0.042858418
137	0x3d070cd2	0.03297121
138	0xbc652481	-0.013985754
139	0xbd895c6a	-0.0670708
140	0x3cc08cfa	0.023504723
141	0xbd893679	-0.06699843
142	0xbdf3d1d3	-0.11905255
143	0x3d96bfec	0.07360825
144	0x3e1b7018	0.15179479
145	0x3c9c9ffd	0.019119257
146	0xbe18371a	-0.1486477
147	0x3dac66c7	0.08418041
148	0x3d539d6b	0.051663797
149	0x3dacb49c	0.08432886
150	0xbe29bd57	-0.16576134
151	0xbd434af0	-0.047678888
152	0xbb6e658d	-0.0036376447
153	0x3d475a21	0.048669938
154	0xbd83ab39	-0.064291425
155	0x3e45b14b	0.19305913
156	0xbcab4284	-0.02090574
157	0x3cf4f5bc	0.029902332
158	0xbe28dfe6	-0.1649166
159	0xbe6fccf8	-0.23418033
160	0xbdcc0ce6	-0.09963398
161	0xbd442838	-0.047889918
162	0xbcab6bfa	-0.02092551
163	0x3d502bd0	0.050823033
164	0x3e28f03e	0.16497895
165	0x3d9ba98a	0.076006964
166	0x3dd52ece	0.10409318
167	0xbe007a35	-0.12546618
168	0xbd548fac	-0.05189483
169	0xbe0ed2ac	-0.13947552
170	0x3e1bc19b	0.15210573
171	0xbd969db6	-0.073543
172	0xbd493f61	-0.04913271
173	0x3beb2758	0.007176321
174	0xbdcfbfff	-0.10144042
175	0x3d3d3f66	0.04620304
176	0xb8bc8625	-8.989525e-05
177	0xbd10bc25	-0.03533568
178	0x3b2049af	0.0024457981
179	0x3d07e924	0.033181325
180	0xbda5a209	-0.080875464
181	0x3d966338	0.07343143
182	0xbdc56c6d	-0.09639821
183	0xbc714716	-0.014726421
184	0x3d6ab148	0.057297975
185	0x3d92b037	0.071625166
186	0xbdc744b7	-0.09729903
187	0xbc777963	-0.015104624
188	0xbddf10dc	-0.108918875
189	0xbe8801d0	-0.26563883
190	0x3da3275c	0.079664916
191	0xbde79909	-0.11308486
192	0x3e7d6b0b	0.24747865
193	0xbdbd243b	-0.09235426
194	0x3c392f9a	0.011302853
195	0x3df2c2a1	0.11853529
196	0xbd6be6c8	-0.057593137
197	0xbcaa5efb	-0.020797243
198	0xbdd4221b	-0.103580676
199	0x3bcef112	0.006315359
200	0x3bf70066	0.0075378893
201	0x3e1e567d	0.1546268
202	0x3d2acaeb	0.041697424
203	0x3cd09246	0.025460374
204	0xbc17036f	-0.009217127
205	0x3de5bb73	0.11217394
206	0xbe0bbcdf	-0.13646267
207	0xbd3891c6	-0.045060895
208	0x3e6ac01b	0.22924845
209	0xbe6e2280	-0.23255348
210	0xbbb5e7ca	-0.005551313
211	0x3daa9765	0.083296575
212	0x3c2e713a	0.0106471125
213	0x3deeb66f	0.1165589
214	0x3cf8b1d6	0.030358236
215	0xbbd0c806	-0.006371501
216	0xbdaa236a	-0.08307536
217	0xbc150750	-0.009095982
218	0x3dd1b17c	0.102389306
219	0x3df07215	0.117405094
220	0xbdbbd0c5	-0.09170679
221	0x3bca8fb9	0.006181684
222	0x3e48441f	0.19557236
223	0x3ddc4d7d	0.10756967
224	0xbdaf1ab9	-0.08550019
225	0xbe38a7ba	-0.18032733
226	0xbca7649c	-0.020433716
227	0xbd7a987b	-0.061180573
228	0xbe165708	-0.14681637
229	0xbda11a76	-0.07866375
230	0xbdf8474c	-0.12122974
231	0xbd2fc323	-0.042910706
232	0x3d1350ac	0.035965607
233	0xbe0be9f6	-0.13663468
234	0xbd2996ba	-0.04140351
235	0xbb61ad6f	-0.003443565
236	0x3b2e7468	0.0026619677
237	0xbe04daaf	-0.12974046
238	0x3c93805f	0.018005548
239	0xbde3aea2	-0.11117293
240	0xbd99b202	-0.075046554
241	0xbd86416d	-0.06555448
242	0x3c98d101	0.018654348
243	0x3d12e233	0.03586025
244	0xbdc12f3c	-0.09432837
245	0xbd895658	-0.06705922
246	0x3e16abda	0.14713994
247	0x3d19ddc0	0.037564993
248	0x3d9ec2ea	0.07752021
249	0x3d2b0f9a	0.041762926
250	0xbc189c79	-0.00931465
251	0xbde99ff4	-0.11407462
252	0xbbca333e	-0.0061706593
253	0x3cec2d62	0.028830234
254	0x3d175230	0.036943614
255	0x3bdcb3a2	0.006735281

main.4.bias f4 [200]
0	0x3f80393a	1.0017464
1	0x3f803bd8	1.0018263
2	0x3f7ff71b	0.9998643
3	0x3f7f5912	0.99745286
4	0x3f801cab	1.0008749
5	0x3f803c96	1.0018489
6	0x3f7f7995	0.99794894
7	0x3f7fd1a3	0.99929255
8	0x3f80166e	1.0006845
9	0x3f7fa9a9	0.99868256
10	0x3f805b99	1.0027953
11	0x3f804bb6	1.0023105
12	0x3f7f8d96	0.9982542
13	0x3f80331d	1.0015599
14	0x3f7f7fda	0.9980446
15	0x3f7fa1e6	0.9985641
16	0x3f803023	1.001469
17	0x3f7fc145	0.9990428
18	0x3f80367c	1.0016627
19	0x3f803708	1.0016794
20	0x3f800849	1.0002528
21	0x3f7fe6b2	0.9996139
22	0x3f7f8b6b	0.9982211
23	0x3f804dd8	1.0023756
24	0x3f7fc5f5	0.99911433
25	0x3f802708	1.0011911
26	0x3f80373b	1.0016855
27	0x3f7ff3fa	0.99981654
28	0x3f8016df	1.000698
29	0x3f7f7fe9	0.9980455
30	0x3f80329f	1.0015448
31	0x3f80328a	1.0015423
32	0x3f804f10	1.0024128
33	0x3f7fae57	0.99875396
34	0x3f7fac46	0.99872243
35	0x3f7fabb8	0.99871397
36	0x3f802edc	1.00143
37	0x3f8039c8	1.0017633
38	0x3f7f7ec4	0.99802804
39	0x3f7f88fe	0.9981841
40	0x3f7f787d	0.99793226
41	0x3f7fa2e9	0.99857956
42	0x3f7fe5a8	0.999598
43	0x3f8043a2	1.002064
44	0x3f7fafaf	0.99877447
45	0x3f80434a	1.0020535
46	0x3f7fa605	0.998627
47	0x3f80314c	1.0015044
48	0x3f8043ac	1.0020652
49	0x3f8017df	1.0007285
50	0x3f803dee	1.00189
51	0x3f7fa2e0	0.998579
52	0x3f7f700b	0.9978034
53	0x3f80297d	1.0012661
54	0x3f7fb0b4	0.99879
55	0x3f7f9040	0.99829483
56	0x3f7fec0e	0.99969566
57	0x3f802dfb	1.0014032
58	0x3f7f91a8	0.9983163
59	0x3f7f5a05	0.99746734
60	0x3f803148	1.001504
61	0x3f7f993a	0.9984318
62	0x3f7ffaf5	0.99992305
63	0x3f7f7318	0.99784994
64	0x3f7fc26c	0.9990604
65	0x3f7fa296	0.9985746
66	0x3f7f90d0	0.9983034
67	0x3f7fd2ab	0.9993083
68	0x3f7f8612	0.9981395
69	0x3f7fbcb8	0.99897337
70	0x3f7f9364	0.99834275
71	0x3f7f9ea2	0.9985143
72	0x3f7fca00	0.999176
73	0x3f802c87	1.0013589
74	0x3f7f8fd9	0.9982887
75	0x3f803c1f	1.0018348
76	0x3f7fac4d	0.99872285
77	0x3f7f6aef	0.9977254
78	0x3f7f6d5b	0.9977624
79	0x3f7f8dba	0.9982563
80	0x3f806c8f	1.003313
81	0x3f80379b	1.001697
82	0x3f80341f	1.0015906
83	0x3f7f9742	0.99840176
84	0x3f803842	1.0017169
85	0x3f7f8f90	0.99828434
86	0x3f7f763f	0.99789804
87	0x3f802c11	1.0013448
88	0x3f7f995c	0.9984338
89	0x3f802c0a	1.001344
90	0x3f7fba05	0.9989322
91	0x3f801102	1.000519
92	0x3f7f8d35	0.9982484
93	0x3f7f9088	0.9982991
94	0x3f8041a5	1.0020033
95	0x3f7f9a94	0.9984524
96	0x3f803576	1.0016315
97	0x3f803647	1.0016564
98	0x3f7fa148	0.9985547
99	0x3f7faf2a	0.99876654
100	0x3f7f9564	0.99837327
101	0x3f7f8aab	0.99820966
102	0x3f7fe1ce	0.99953926
103	0x3f7f8989	0.99819237
104	0x3f7ff274	0.9997933
105	0x3f7f8035	0.99805003
106	0x3f801dfa	1.0009148
107	0x3f7f8bf2	0.99822915
108	0x3f7fd8cb	0.99940175
109	0x3f8006f8	1.0002127
110	0x3f7f58fc	0.99745154
111	0x3f8037e4	1.0017056
112	0x3f800325	1.000096
113	0x3f7fddf4	0.9994805
114	0x3f80244b	1.0011076
115	0x3f7f9955	0.9984334
116	0x3f7fb55f	0.99886125
117	0x3f7fb9b6	0.9989275
118	0x3f7f7e4a	0.99802077
119	0x3f8045d3	1.0021309
120	0x3f7f8f7b	0.9982831
121	0x3f8034c4	1.0016103
122	0x3f8042be	1.0020368
123	0x3f7f99a2	0.998438
124	0x3f7f9d4d	0.99849397
125	0x3f7f7c15	0.9979871
126	0x3f7fbd7f	0.99898523
127	0x3f8047cf	1.0021914
128	0x3f804562	1.0021174
129	0x3f803900	1.0017395
130	0x3f7fcd6c	0.99922824
131	0x3f804c41	1.0023271
132	0x3f801e9f	1.0009345
133	0x3f7f66fb	0.9976651
134	0x3f8023f7	1.0010976
135	0x3f7f9188	0.9983144
136	0x3f7f992c	0.99843097
137	0x3f8027a1	1.0012094
138	0x3f7fa367	0.9985871
139	0x3f803a89	1.0017864
140	0x3f7f373a	0.99693644
141	0x3f803ad8	1.0017958
142	0x3f801e6e	1.0009286
143	0x3f7f9b1d	0.9984606
144	0x3f7f8f6b	0.99828213
145	0x3f7f8d5a	0.9982506
146	0x3f8006bc	1.0002055
147	0x3f7f7941	0.99794394
148	0x3f7fcab9	0.99918705
149	0x3f801e02	1.0009158
150	0x3f7f7bb5	0.99798137
151	0x3f805463	1.0025753
152	0x3f7f8026	0.99804914
153	0x3f80153a	1.0006478
154	0x3f7fa338	0.9985843
155	0x3f804bdf	1.0023154
156	0x3f800c65	1.0003783
157	0x3f7f65d9	0.9976478
158	0x3f8018f7	1.0007619
159	0x3f800620	1.0001869
160	0x3f7f7700	0.99790955
161	0x3f8025e3	1.0011562
162	0x3f7fec72	0.9997016
163	0x3f7ffe96	0.9999784
164	0x3f7f947d	0.9983595
165	0x3f7fc5e5	0.9991134
166	0x3f802754	1.0012002
167	0x3f800b70	1.000349
168	0x3f7fa4e8	0.99861
169	0x3f804089	1.0019695
170	0x3f800af9	1.0003349
171	0x3f7f6145	0.99757797
172	0x3f7f713f	0.99782175
173	0x3f803306	1.0015571
174	0x3f7f61f9	0.9975887
175	0x3f7f96c4	0.99839425
176	0x3f804c38	1.002326
177	0x3f7fb4db	0.9988534
178	0x3f7f9489	0.9983602
179	0x3f7f9608	0.99838305
180	0x3f7f7cdd	0.997999
181	0x3f7f86ec	0.9981525
182	0x3f7f8b90	0.9982233
183	0x3f7f6448	0.9976239
184	0x3f8042fe	1.0020444
185	0x3f80184f	1.0007418
186	0x3f7f9136	0.9983095
187	0x3f804cfb	1.0023493
188	0x3f801119	1.0005218
189	0x3f7f9c8d	0.9984825
190	0x3f7fdd58	0.9994712
191	0x3f7fd327	0.9993157
192	0x3f7f8027	0.9980492
193	0x3f7f90e6	0.9983047
194	0x3f7f9fef	0.99853414
195	0x3f7ffb27	0.99992603
196	0x3f7f9d60	0.9984951
197	0x3f80119f	1.0005378
198	0x3f7f8e4d	0.9982651
199	0x3f7f9094	0.99829984

main.6.weight f4 [200, 200]
0	0xbd81e8ed	-0.06343255
1	0xbdf83f61	-0.121214636
2	0xbc691adf	-0.014227598
3	0x3d7ec106	0.0621958
4	0x3cc92db6	0.02455793
5	0x3da5a203	0.08087542
6	0x3d840592	0.06446375
7	0xbd440fff	-0.047866818
8	0xbd965920	-0.07341218
9	0xbd6041a8	-0.054750115
10	0xbca9eaa9	-0.020741777
11	0xbe4755c7	-0.19466315
12	0x3d1e005a	0.038574554
13	0x3df1ee93	0.118130825
14	0xbe1e9c03	-0.15489201
15	0x3e45010a	0.19238678
16	0x3d7b384e	0.061332993
17	0xbe72c45a	-0.23707715
18	0xbc156df9	-0.009120458
19	0xbdc78491	-0.09742082
20	0x3d456ec6	0.048201345
21	0x3b85b997	0.004080962
22	0xbb9218fc	-0.004458545
23	0x3dfe0645	0.124035396
24	0xbda2183c	-0.079147786
25	0xbd9aefa7	-0.07565241
26	0x3d7fd671	0.062460367
27	0x3bb6f698	0.0055835955
28	0x3ce782b4	0.028260566
29	0xbe5768c6	-0.21036062
30	0x3e41d868	0.18930209
31	0xbe56634a	-0.20936313
32	0xbda577a5	-0.08079461
33	0xbcea97de	-0.028636869
34	0xbd8899df	-0.066699736
35	0x3d6a39cb	0.057184022
36	0x3c46a33e	0.012123881
37	0xbccb198c	-0.024792455
38	0x3e3947fe	0.18093869
39	0x3e034430	0.1281898
40	0xbda48a26	-0.08034162
41	0x3e0ae6c0	0.13564587
42	0xbdc4154b	-0.09574374
43	0xba2f4c0d	-0.00066870527
44	0xbe7b3049	-0.24530138
45	0xbd0ddb82	-0.034633167
46	0x3e31d1eb	0.17365234
47	0x3d7b8bb7	0.06141254
48	0x3c14a607	0.009072787
49	0xbdf003fb	-0.11719509
50	0xbd7537cd	-0.05986767
51	0xbe18608b	-0.14880578
52	0x3cc6dd96	0.024275582
53	0xbd4012a2	-0.04689277
54	0xbe2df7c1	-0.16989042
55	0xbd0b2942	-0.033974893
56	0x3cfd4080	0.030914545
57	0x3e05fc08	0.13084424
58	0xbe03e61d	-0.1288075
59	0xbdff6831	-0.12471045
60	0x3d9fbb76	0.07799427
61	0xbc2e555f	-0.010640471
62	0xbd8d6902	-0.06904794
63	0xbd3bcfdb	-0.045852523
64	0xbd3fe574	-0.046849683
65	0x3b7e1675	0.003877071
66	0x3dab6d58	0.08370465
67	0xbddda388	-0.10822207
68	0xbd18849c	-0.03723584
69	0x3db1d3d0	0.08682978
70	0xbe1b6bb1	-0.151778
71	0xbe5e5f35	-0.21716006
72	0xbe5743bd	-0.21021934
73	0x3d1a2a97	0.037638273
74	0xbd99d795	-0.07511822
75	0xbd9e6c2c	-0.07735476
76	0x3be8980f	0.007098205
77	0x3b72871a	0.0037006796
78	0x3dd3a8f3	0.10334959
79	0xbd08c1b7	-0.033387866
80	0x3ca73823	0.02041251
81	0xbd9db1a7	-0.076999
82	0x3de589ec	0.11207947
83	0xbdf743fd	-0.120735146
84	0xbcf3b4f0	-0.029749364
85	0xbddab937	-0.10679858
86	0x3dfd6688	0.12373072
87	0xbc46fb07	-0.0121448105
88	0xbdd3f52d	-0.10349498
89	0x3cc65146	0.024208676
90	0x3cfb7e2f	0.030699817
91	0xbda315c0	-0.07963133
92	0x3c497dce	0.012298061
93	0x3dbeb413	0.0931169
94	0x3dc942bc	0.09827182
95	0x3c639315	0.013890048
96	0x3d8eae37	0.069668226
97	0xbcebb261	-0.028771581
98	0x3dff2175	0.12457553
99	0xbc4ccf01	-0.012500525
100	0xbd020a36	-0.03174802
101	0x3ce7d6ef	0.02830073
102	0xbc416842	-0.011804642
103	0x3d04c2b4	0.032412246
104	0xbc8c7723	-0.017146653
105	0xbe131da1	-0.14366771
106	0xbe1a6ea2	-0.15081266
107	0x3c595bc8	0.013266511
108	0xbbbbd010	-0.00573159
109	0xbcddbfda	-0.027069021
110	0xbdddcb02	-0.10829736
111	0xbe53f9e4	-0.20700794
112	0x3d8add7e	0.067805275
113	0x3d85014f	0.0649439
114	0x3d829c8c	0.06377515
115	0xbe035a9b	-0.12827532
116	0x3cf51e47	0.029921664
117	0x3df1f646	0.11814551
118	0xbb9610d1	-0.0045796414
119	0x3d1ec24f	0.038759526
120	0x3d50d93e	0.05098843
121	0x3d1547ef	0.036445554
122	0xbe7ea97c	-0.2486934
123	0x3df25d92	0.11834253
124	0x3d1d6bf7	0.03843304
125	0xbad90e95	-0.0016560132
126	0x3df260ee	0.11834894
127	0xbdcd74d8	-0.10032052
128	0xbc461e0e	-0.0120921265
129	0xbd3fd2ee	-0.046832018
130	0x3ccf2b29	0.025289135
131	0x3d63243e	0.055454485
132	0x3dec7a3b	0.11546751
133	0xbd53a843	-0.05167414
134	0xbd1455bb	-0.03621457
135	0xbda5c2c2	-0.08093788
136	0x3ce80b58	0.028325722
137	0xbdb9ec89	-0.090783186
138	0x3d8852a4	0.066563874
139	0x3cb09858	0.021557018
140	0xbe5c29ff	-0.21500395
141	0x3e3aca9c	0.18241352
142	0xbda8a6c4	-0.08234933
143	0xbe08ab06	-0.1334649
144	0xbddee3ca	-0.10883291
145	0x3de1e944	0.1103082
146	0x392b9173	0.00016362015
147	0xbe069ac6	-0.13144979
148	0xbcc0b4ac	-0.023523651
149	0x3d126821	0.035743836
150	0xbd88b7d6	-0.06675689
151	0xbdb5615e	-0.08856462
152	0xbd13a72e	-0.036048107
153	0xbe203177	-0.1564387
154	0x3dffa1f9	0.12482066
155	0xbb696939	-0.0035615696
156	0xbde932fb	-0.11386677
157	0x3d651e62	0.05593718
158	0x3d970f3e	0.07375954
159	0xbd6fb10d	-0.05851846
160	0x3c8bb031	0.017051788
161	0x3d6fa883	0.058510315
162	0x3e220639	0.15822686
163	0x3cd9525c	0.02652853
164	0x3c006feb	0.007839183
165	0xbe2bbef3	-0.1677206
166	0xbdab74fe	-0.08371924
167	0x3b3a967b	0.002847104
168	0x3de939e7	0.11387997
169	0xbc8e8a45	-0.017399916
170	0xbc844d5b	-0.016150167
171	0x3e3f6a40	0.18692875
172	0xbe3559bf	-0.17710017
173	0xbd1e1725	-0.03859629
174	0xbe08a02b	-0.13342349
175	0xbdf2551f	-0.11832642
176	0x3d55d8a2	0.05220855
177	0x3d54c33b	0.051944
178	0x3e158349	0.14600863
179	0x3e1e7faf	0.15478395
180	0xbe19964a	-0.14998737
181	0x3d2144c2	0.039372213
182	0x3c747db4	0.014922548
183	0xbd8d3079	-0.06894011
184	0xbdceefff	-0.10104369
185	0x3dd4c5b5	0.10389272
186	0xbe3db97b	-0.18527786
187	0x3e53966a	0.20662847
188	0xbe334f7a	-0.17510787
189	0x3c95a216	0.018265765
190	0x3cebfb5c	0.02880638
191	0xbc346b9f	-0.011011987
192	0x3d4f69cf	0.050638016
193	0x3e7aa5a8	0.24477255
194	0x3cdc541a	0.026895572
195	0xbe085777	-0.13314615
196	0x3d667821	0.056266908
197	0x3c9a6416	0.018846553
198	0xbe3e9dc5	-0.18614872
199	0x3c7c5f07	0.015403516
200	0xbe28520b	-0.16437547
201	0xbc9e2221	-0.019303383
202	0x3e5bd604	0.21468359
203	0x3d0df298	0.034655184
204	0x3d83f2b0	0.06442773
205	0xbb93a952	-0.0045062685
206	0x3c990aea	0.018681962
207	0x3e10637d	0.14100452
208	0xbd7c09ee	-0.061532907
209	0xbdf37fcb	-0.11889609
210	0xbda5f190	-0.08102715
211	0xbdf6c64e	-0.12049542
212	0xbcf911b9	-0.030403959
213	0xbddec955	-0.10878245
214	0xbd8d2f74	-0.068938166
215	0xbdeab957	-0.11461132
216	0xbc8be2d2	-0.01707593
217	0xbd9d1bee	-0.07671343
218	0x3e3c8c67	0.18412934
219	0x3e2497a5	0.16073473
220	0x3ca017bc	0.019542567
221	0xbdaba6ea	-0.08381446
222	0x3d1b048f	0.037846144
223	0x3c96d8e2	0.018413965
224	0x3e2589a8	0.16165793
225	0x3c959731	0.01826057
226	0xbc0acbac	-0.008471411
227	0xbe3a435d	-0.1818976
228	0x38e34efe	0.00010838917
229	0xba939c11	-0.0011261721
230	0x3df8944c	0.121376604
231	0xbd33366a	-0.043753065
232	0x3d8a9db1	0.067683585
233	0xbe85a6a8	-0.2610371
234	0xbd16c083	-0.036804687
235	0xbc88e39c	-0.016710095
236	0x3cf2d432	0.029642198
237	0x3d24fc10	0.040279448
238	0xbe1b0da5	-0.15141924
239	0xbde19801	-0.110153206
240	0x3d97bef7	0.074094705
241	0xbe1d3fa6	-0.15356311
242	0xbe18dfc1	-0.14929105
243	0xbe0e6ee4	-0.13909489
244	0xbdf32ac5	-0.11873392
245	0xbd01f805	-0.03173067
246	0xbcff4054	-0.031158604
247	0x3cd41af0	0.025891751
248	0x3e032112	0.12805584
249	0x3bcaeeb9	0.0061930087
250	0x3cba4b4f	0.022740988
251	0xbc6e42ac	-0.014542263
252	0x3c3ffd0a	0.011718044
253	0x3e088cd0	0.13334966
254	0xbe062ca8	-0.13102973
255	0xbcc3e776	-0.02391408

main.6.bias f4 [200]
0	0x3f804cba	1.0023415
1	0x3f8011f4	1.0005479
2	0x3f801a6a	1.0008061
3	0x3f7fe004	0.99951196
4	0x3f7fa19f	0.9985599
5	0x3f8028ff	1.0012511
6	0x3f7f7316	0.9978498
7	0x3f7f870d	0.99815446
8	0x3f7faef4	0.9987633
9	0x3f802b3a	1.0013192
10	0x3f7f8704	0.9981539
11	0x3f804c6a	1.002332
12	0x3f7fc37f	0.9990768
13	0x3f7fe514	0.9995892
14	0x3f7fc30a	0.9990698
15	0x3f7f80f8	0.99806166
16	0x3f7f5f91	0.997552
17	0x3f8043d7	1.0020703
18	0x3f7fa905	0.9986728
19	0x3f802969	1.0012637
20	0x3f7fdaf0	0.9994345
21	0x3f7fa00b	0.9985358
22	0x3f803a60	1.0017815
23	0x3f7f5a50	0.9974718
24	0x3f8036f8	1.0016775
25	0x3f802b76	1.0013263
26	0x3f802f44	1.0014424
27	0x3f800d78	1.000411
28	0x3f7f9804	0.9984133
29	0x3f7fbd01	0.9989777
30	0x3f7f810a	0.99806273
31	0x3f80095b	1.0002855
32	0x3f7fbf5c	0.99901366
33	0x3f7fd019	0.99926907
34	0x3f7f65c5	0.99764663
35	0x3f7faf2f	0.99876684
36	0x3f806210	1.0029926
37	0x3f7fc7d4	0.9991429
38	0x3f80259e	1.001148
39	0x3f7f7344	0.99785256
40	0x3f801a71	1.0008069
41	0x3f7f8706	0.99815404
42	0x3f7f73a0	0.99785805
43	0x3f7f5c4a	0.99750197
44	0x3f7f8e0d	0.9982613
45	0x3f7f771a	0.9979111
46	0x3f7fd57e	0.9993514
47	0x3f8030d5	1.0014902
48	0x3f7f878f	0.9981622
49	0x3f7fa88c	0.9986656
50	0x3f804500	1.0021057
51	0x3f7f90c5	0.99830276
52	0x3f8005eb	1.0001806
53	0x3f7f9455	0.9983571
54	0x3f804189	1.002
55	0x3f7f82f2	0.9980918
56	0x3f804d4a	1.0023587
57	0x3f7f8bde	0.99822795
58	0x3f7f63d7	0.9976172
59	0x3f801191	1.0005361
60	0x3f803146	1.0015037
61	0x3f7f81a1	0.99807173
62	0x3f7f9ffb	0.99853486
63	0x3f8038ea	1.0017369
64	0x3f7fbeb2	0.9990035
65	0x3f7fd1fe	0.999298
66	0x3f7fc737	0.9991335
67	0x3f7ff6d2	0.9998599
68	0x3f7fef4d	0.9997452
69	0x3f802920	1.001255
70	0x3f7f8fde	0.998289
71	0x3f7fbff4	0.9990227
72	0x3f803b78	1.0018148
73	0x3f803af2	1.0017989
74	0x3f7fbca1	0.998972
75	0x3f7f877e	0.9981612
76	0x3f7fc251	0.9990588
77	0x3f7f9069	0.9982973
78	0x3f7f787c	0.9979322
79	0x3f8035e0	1.0016441
80	0x3f7fb448	0.9988446
81	0x3f7f760b	0.99789494
82	0x3f7fa045	0.99853927
83	0x3f7f72f2	0.9978477
84	0x3f7f80b5	0.99805766
85	0x3f7f9b68	0.99846506
86	0x3f800af4	1.0003343
87	0x3f801937	1.0007695
88	0x3f7fb17c	0.99880195
89	0x3f7f9b78	0.998466
90	0x3f805674	1.0026383
91	0x3f802f40	1.001442
92	0x3f80319f	1.0015143
93	0x3f803cce	1.0018556
94	0x3f7f7302	0.99784863
95	0x3f80470c	1.0021682
96	0x3f803789	1.0016948
97	0x3f8045d9	1.0021316
98	0x3f7f762f	0.9978971
99	0x3f8034e1	1.0016137
100	0x3f80113c	1.000526
101	0x3f7f839f	0.9981021
102	0x3f7f96e7	0.99839634
103	0x3f7f903e	0.9982947
104	0x3f7fe330	0.99956036
105	0x3f7fae71	0.9987555
106	0x3f7f856e	0.9981297
107	0x3f8042e3	1.0020412
108	0x3f806211	1.0029927
109	0x3f80446c	1.0020881
110	0x3f7fc2e3	0.9990675
111	0x3f80023e	1.0000684
112	0x3f7f9963	0.99843425
113	0x3f7f99f6	0.998443
114	0x3f7fa235	0.99856883
115	0x3f7fc30b	0.99906987
116	0x3f8040a6	1.0019729
117	0x3f7f7d16	0.9980024
118	0x3f7f86eb	0.99815243
119	0x3f7fa358	0.9985862
120	0x3f8001cb	1.0000547
121	0x3f7fa411	0.9985972
122	0x3f7f709e	0.99781215
123	0x3f7fddc5	0.9994777
124	0x3f804348	1.0020533
125	0x3f7f8d97	0.99825424
126	0x3f7f97ce	0.9984101
127	0x3f802419	1.0011016
128	0x3f7fcb3a	0.99919474
129	0x3f80410c	1.0019851
130	0x3f800a39	1.000312
131	0x3f7f75cb	0.9978911
132	0x3f7f9f9a	0.9985291
133	0x3f8029ad	1.0012718
134	0x3f8038e2	1.0017359
135	0x3f7fb2a6	0.9988197
136	0x3f7f7378	0.99785566
137	0x3f7f8b3c	0.9982183
138	0x3f8031d4	1.0015206
139	0x3f8043ac	1.0020652
140	0x3f7fcf1a	0.99925387
141	0x3f7fa86d	0.9986637
142	0x3f804487	1.0020913
143	0x3f7f3637	0.996921
144	0x3f7f9f9b	0.99852914
145	0x3f804306	1.0020454
146	0x3f80424d	1.0020233
147	0x3f7f9db7	0.9985003
148	0x3f8037d5	1.0017039
149	0x3f801e4d	1.0009247
150	0x3f803e45	1.0019003
151	0x3f802411	1.0011007
152	0x3f80330a	1.0015576
153	0x3f7fcf0a	0.9992529
154	0x3f7f8de4	0.9982588
155	0x3f7f9863	0.998419
156	0x3f7f90ef	0.99830526
157	0x3f8018fb	1.0007623
158	0x3f8029ad	1.0012718
159	0x3f7f5379	0.99736744
160	0x3f7fd8e6	0.99940336
161	0x3f804929	1.0022327
162	0x3f801a1f	1.0007972
163	0x3f803dd5	1.001887
164	0x3f802aab	1.0013021
165	0x3f7f6645	0.99765426
166	0x3f803e20	1.0018959
167	0x3f8016bb	1.0006937
168	0x3f7fc109	0.99903923
169	0x3f7f96e2	0.99839604
170	0x3f7f90ac	0.99830127
171	0x3f801978	1.0007772
172	0x3f803190	1.0015125
173	0x3f7feb58	0.9996848
174	0x3f803bce	1.0018251
175	0x3f7f9dd0	0.9985018
176	0x3f7f9604	0.9983828
177	0x3f7fccdf	0.99921983
178	0x3f7fdf42	0.9995004
179	0x3f803de5	1.0018889
180	0x3f7fde3d	0.99948484
181	0x3f7f89af	0.99819463
182	0x3f7fac98	0.9987273
183	0x3f8039aa	1.0017598
184	0x3f7f935f	0.99834245
185	0x3f7f857e	0.9981307
186	0x3f802ac4	1.0013051
187	0x3f7f8e0c	0.9982612
188	0x3f8025b0	1.0011501
189	0x3f7fee02	0.99972546
190	0x3f8005a5	1.0001723
191	0x3f8016d7	1.000697
192	0x3f803893	1.0017265
193	0x3f803fbb	1.0019449
194	0x3f7ff0c4	0.99976754
195	0x3f803984	1.0017552
196	0x3f7fa298	0.99857473
197	0x3f7f934e	0.99834144
198	0x3f7f6c1f	0.99774355
199	0x3f801d37	1.0008916
